src/models/model_epoch_lattn_ 1.pth (torch, 672449 bytes, 10 tensors)

localAttentionLayer_user.attention_layer.0.weight f4 [1, 1, 5, 100]
00000000: 8cec 243c 3745 1bbd f68a 403c f74d c4b9
00000010: 2621 21bd 2ce1 58bd f934 3ebd f450 a8bc
00000020: 0100 2dbd 6f5b 17bd d14e 3bbd 27fb efbc
00000030: 1be9 92bc 6287 d2bc 8b58 8bbc a5e8 513a
00000040: 4d3b 9b3c ea9c 02bc 765d a43b cd52 4fbd
00000050: 624a ad3c b2c8 25bd d07b 9fbc 4321 0dbd
00000060: 994f 52bd bc34 64bd 8c38 d1bc 493e 10bd
00000070: 734f 14bd 650e 6f3c 8a45 873c 8954 a23c
00000080: cbcf 923c a703 29bc 730a 873c c3e9 22bd
00000090: 3ea5 ac3c a74e 14bd ebdb e9bb 1d18 51bd
000000a0: 4963 05bd 105f 6fbd 091f 0fbc aea5 893c
000000b0: 2553 8b3c c85c 04bc 1f9c 1ebd b759 23bd
000000c0: 81a8 1ebd e109 ce3c 86ed 3dbd 4406 eabc
000000d0: fb81 12bd 0c29 47bd 8083 46bd c4de 9cbc
000000e0: 2cc0 34bd cd45 27bd aed1 343c 30d1 36bd
000000f0: 486d 213a dbb9 3ebd 5f6c fbbb 832d 1fbd
00000100: 0a57 38bd ac9f 063c 11dc 5ebd 7c14 aebb
00000110: 9ccf 073c 2dcf 53bd 632f b2bc 54a2 08bd
00000120: 1f8d 05bb 47bf c93c 4094 4fbd b14e d4bc
00000130: 6bae bdbb 6b54 69bd b4b1 ab3b 5959 bfbc
00000140: 4be3 fbbc c409 61bd 16d2 903b 6900 13bd
00000150: 659f f5bc d98b 803c 399a 9b3c f8ff 00bd
00000160: 7039 debc 5a6d 11bd 40b2 cf3c 6c5f 28bd
00000170: 462b 693b 8274 28ba 2246 3dbd 42ea 303c
00000180: 2c83 2ebd 8ae7 dfbc 6251 b93c 7e94 14bd
00000190: c6b6 c6bc 5158 d23c 04dd 20bb cc43 52bd
000001a0: f2bb c63c 19b4 e03c 3675 033c acd9 8cbc
000001b0: 575c 58bd e432 833a 131b d93c 74a2 f33c
000001c0: 7e14 a23a 6908 5fbc 07a7 1cbd efed d3bc
000001d0: 8802 6cbd 4def 6cbd 20e8 2ebd 7ad3 69bc
000001e0: b059 ac3c c7ed 81bb f806 993c ca24 a23c
000001f0: 914e 55bd d17a d0ba 8ecd 803a d606 76bb
00000200: c201 263b f949 59bd dc7d 6a3a c4d5 20bd
00000210: 3d7e b43c 6579 74bb 617b 47bd 5338 6dbc
00000220: 2e31 40bd fd70 59bd 351c 323c 7f3e 27bb
00000230: 425b ef3c af69 5cbd d575 843c 69d8 cfbb
00000240: a59d c83c 9208 5fbd f272 223b 357b b83c
00000250: 8366 d5bc fed7 45bd d44c 2dbd 3735 65bd
00000260: a9e1 48bd d363 debc 1fdd d83c b364 5cbd
00000270: f52c 3abd 580f 9f3c e78c 633c 2c21 2ebd
00000280: 4b73 55bb f2e1 f33c 2d0b 70bd 0863 673c
00000290: 54b4 c5bc c8a6 f03c 6487 dcbc e677 2abd
000002a0: d394 db3c 2dee cc3c bc6a 6ebc 6c22 993b
000002b0: 0364 9cbc f922 ef3c 5d95 aa3c 4f9a c8bb
000002c0: 91be 6abb 3e87 5ebd 6946 8fbc 53b4 50bb
000002d0: ca60 903c 388f 43bd dd89 653c 0ae4 40bd
000002e0: 2254 51bd f247 aabb 3832 6ebd 5515 edbc
000002f0: 05ce 48bd e15d 3f3c d6a0 b7bc 14be 9cbc
00000300: 72e0 50bd aaa4 b5bc 8e5a 6cbc bd82 93bc
00000310: 2d61 6ebd 726f 9dbc 60a1 38bd 3a4b e4bc
00000320: ac92 a9bb 66b5 d5bb 6123 70bb a192 c0bb
00000330: 82e2 83bc 47b7 0dbd 6f85 48bd e206 ef3c
00000340: 05d2 b63c 334b 713b e32a a4bc 2131 4ebd
00000350: bc32 a53b 222f 4c3c 424d e03c 9ec1 f93c
00000360: 6124 bdbc ce16 47bd a63a c5bc a346 0bbc
00000370: 8881 21bd 4b53 b13c e747 fc3c 882d 3cbd
00000380: 107f a13c d225 e53c 9f05 ed3c 169d a53c
00000390: 7c01 28bd 2b77 3fba 89b9 e53c e671 a3bb
000003a0: fc07 8a3c 8336 5f3c 499f 983c f9c9 3f3c
000003b0: 8faf cd3b 1ecb 6b3c 1adf 903b b6ba 4dbd
000003c0: fab1 8a3c 3d74 43bd 7eed 09bd f2dd 2ebd
000003d0: d950 23bc 755b 9f3c fcac d9bc 0e1a 1a3b
000003e0: c6b9 753c 8a90 05bc 37bd 873c e56b db3c
000003f0: 896c 08bd ec38 15bd cf8b f1bc f635 313c
0.010066163 -0.037907805 0.011751881 -0.00037442122 -0.039338253 -0.052949116 -0.046437237 -0.020546414
-0.04223633 -0.036952432 -0.045729462 -0.029294563 -0.017933419 -0.025699321 -0.017009994 0.0008007384
0.018949175 -0.007971982 0.005016024 -0.050616074 0.021153633 -0.0404746 -0.019468218 -0.03445555
-0.05134544 -0.055714354 -0.025539659 -0.03521565 -0.03620858 0.014590834 0.016512651 0.0198157
0.017921349 -0.010315812 0.016484475 -0.039773714 0.021074887 -0.03620782 -0.007136812 -0.051048387
-0.03256539 -0.058440268 -0.008735427 0.016802635 0.01700742 -0.008078761 -0.038723107 -0.03988048
-0.038734917 0.025151195 -0.046369098 -0.02856744 -0.03576849 -0.04862313 -0.048465252 -0.019149192
-0.044128582 -0.04083805 0.01103632 -0.04463309 0.0006157947 -0.046563964 -0.007672831 -0.038861763
-0.045004882 0.00821678 -0.05440909 -0.0053125005 0.008289244 -0.05171125 -0.021751111 -0.033357933
-0.0020378304 0.024627341 -0.05067849 -0.02591643 -0.0057886145 -0.056965273 0.0052396897 -0.023358034
-0.03074803 -0.054940954 0.0044195754 -0.035889063 -0.029983232 0.015691685 0.018994438 -0.03149411
-0.027126998 -0.035504676 0.02535355 -0.041106626 0.0035578771 -0.00064260524 -0.046209462 0.010798039
-0.042605564 -0.027332086 0.022621814 -0.036274426 -0.024257075 0.025676878 -0.0024545798 -0.051334187
0.024259541 0.027429627 0.008023551 -0.017193638 -0.052822437 0.0010009673 0.026502168 0.02974055
0.0012365726 -0.013612845 -0.038245227 -0.025870292 -0.0576196 -0.057845403 -0.04270184 -0.014271611
0.02103886 -0.003965113 0.01868008 0.019792933 -0.05207688 -0.0015905743 0.0009826885 -0.0037540696
0.0025330638 -0.05304906 0.0008945146 -0.039266363 0.022032851 -0.0037303802 -0.048701648 -0.014478761
-0.0469219 -0.05308627 0.010870983 -0.0025519428 0.02921832 -0.053811725 0.016169468 -0.006342937
0.024489233 -0.054451533 0.002478775 0.022519687 -0.026049858 -0.04830169 -0.042309597 -0.055958953
-0.04904333 -0.02714721 0.026472626 -0.05380697 -0.04545303 0.019416496 0.013888574 -0.042512104
-0.003256994 0.029770825 -0.058604408 0.014122732 -0.024133839 0.029376402 -0.026920028 -0.04161825
0.026804363 0.025015915 -0.014551815 0.004673293 -0.019090658 0.029191481 0.020823175 -0.0061219106
-0.0035819153 -0.054328196 -0.017489629 -0.0031845763 0.017624278 -0.047744006 0.01400992 -0.047092475
-0.051105626 -0.005196565 -0.05815336 -0.028940836 -0.0490246 0.011680097 -0.02241556 -0.019133605
-0.050995298 -0.022173245 -0.014425887 -0.018006677 -0.058198143 -0.01921818 -0.045075774 -0.027867902
-0.0051749554 -0.0065218685 -0.0036642181 -0.0058768545 -0.016099218 -0.034598615 -0.048955377 0.029178087
0.022316942 0.0036818504 -0.020039981 -0.05033982 0.0050414484 0.012462409 0.02738059 0.030487832
-0.023088636 -0.048605733 -0.024075817 -0.008500728 -0.03943017 0.021646162 0.030796004 -0.04594186
0.019713908 0.027972136 0.028933344 0.020216506 -0.04101704 -0.0007303829 0.028042572 -0.004987943
0.01684951 0.013623836 0.01863064 0.011705869 0.0062770317 0.014391689 0.004421127 -0.05022689
0.016930569 -0.047718275 -0.033673756 -0.042692132 -0.009968006 0.01945279 -0.026571743 0.0023514065
0.014997905 -0.008152137 0.016569717 0.026784847 -0.033306632 -0.036431238 -0.029485611 0.010816088

localAttentionLayer_user.cnn.0.weight f4 [200, 1, 1, 100]
00000000: f822 a5bd c495 173d 6a04 d6bc 26d7 3b3d
00000010: 1013 28bd c347 64bd 42ed 493d 3356 8bbd
00000020: f799 aa3d 50b8 743c e188 89bc 4a39 00bd
00000030: 54cf d53c 7842 a93d 920a aa3d d2be 04bd
00000040: bc38 a83b 907b be3d 40f8 8e3d fe4d 973c
00000050: 3040 e73b ea03 84bd 508d 0bbd 3dcb 803c
00000060: 2a5b 71bd 306f 24bd a25b 5fbd 9f9c 983d
00000070: 9bf2 db3d 09b7 bebb 5ac2 8b3d bd6a 8abd
00000080: c771 ddbc 4750 a7bd d7d1 a4bd 0dd9 d73d
00000090: 67ac 56bc 1de1 a73d d1bf 1abd cb17 063d
000000a0: 7c43 3fbd 5ff7 b6bd fd5d 24bd 72ae d73c
000000b0: 1b3c b7bd 833a a63d 4eb2 033d 8a18 a2bd
000000c0: c92a cb3d 08a7 d9bc a503 83bd 57af 79bc
000000d0: 120e 54bd 0cd5 673d 3caa 8c3b e0f5 fabc
000000e0: d2fe 91bd 2f49 a33c 2a66 813d 05f0 7dbb
000000f0: 5e66 9f3d 9afb 663d d5bd 1d3d 0b4a 5d3c
00000100: f7fe d13c 3632 5cbd bedc 61bd ac84 afbd
00000110: ec35 3f3d 8854 483c 7cfd 46bd 8093 af3d
00000120: 888a 0c3d 239f 09bb 65b5 883c efb0 5b3d
00000130: 566b ad3c 1ad7 cb3b 7cd9 a2bd 118e f5bc
00000140: 9409 823d 0c60 80bb 1ee1 8e3d b8d4 8fbd
00000150: a8b8 843d 8440 fbbc bf2e a0bd a0e8 913d
00000160: a036 093d 5600 f83c 0261 dc3d eae4 9cbd
00000170: ceda dd3d 735d 773c d4ef 64ba 3074 c43d
00000180: 6575 b2bd 7861 553c 68f0 fd3b 86a9 863c
00000190: 3aeb 80bc b672 0c3c e686 1f3d 7fde 243d
000001a0: d803 dcbc 6190 613c 664b af3d 2657 7d3d
000001b0: 4aaf bb3d 9bcc ab3d d7b7 ab3d 8545 593d
000001c0: 47d3 c13d da31 cc3d 423f afbc db1f dcbc
000001d0: ab72 843d 59a7 ba3d b417 903d 1e04 3ebb
000001e0: b808 3ebc e9d0 903c 4ea6 953d 5012 a23d
000001f0: 9f0c 923d f45b aa3d 9ff7 07bd 4577 92bb
00000200: 7141 c63c 08e1 b6bd 6cba 47bd c7a5 88bd
00000210: c9a3 a93c c061 9a3d da63 283c 3e82 bcbd
00000220: 07e4 7ebd 32d0 c53d c299 823d acb8 6abb
00000230: df5e 4dbc 1516 9a3d c894 a0bd da1c 773d
00000240: 5727 303d cf14 c83c dd1e 8abd 3f78 9ebb
00000250: 17ee 223c 9f24 af3d 78f2 523d 3284 babd
00000260: 1144 2dbc a2eb bbbd b328 b43d 03df 9c3d
00000270: 3ce2 d63d 93ef a43d 4667 943d 9c84 d33c
00000280: fc14 d43d 9a00 c93d 357c 263d ea90 323d
00000290: 6655 623d 3fc1 8ebd 8255 74bd a33c 873d
000002a0: 5fde a33d fd6b 503d d723 45bc 4bfb 37bd
000002b0: 3440 b23d 14c7 74bd 8054 1e3d afe9 8e3d
000002c0: 26ef 37bc e3e6 093d fa4f 19bd 004a 48bd
000002d0: 5343 893d 2104 72bc e0e5 21bd 5e79 8ebd
000002e0: 3b9c 1c3d dbb9 33bd 3944 8d3d 423c a9bd
000002f0: 2271 d53d f1d2 7c3d dc86 683a f0e1 d43c
00000300: c101 cf3d 2bc2 89bd 3b6f 17bc 385d a33d
00000310: efba 9bbc 0e6a 3c3d 3b0d 17bd 182a 873c
00000320: d5bf 453d c036 953d 0c4d 95bd f5a9 a4bd
00000330: dbe2 c4bd 11d6 07bd 4d1b d2bd 9b9e 143d
00000340: fa8b 84bd 8730 c63c 145f 603d 07ad 91bd
00000350: 2fd9 0cbd cb31 ae3d 5fb9 a9bd 0d72 53bd
00000360: fad9 79bd 1f6b 89bd f733 dabc 667f 8fbd
00000370: 0bde 973d d215 cabd 8a0d bfbd 76b3 3b3c
00000380: ed66 11bd 5de6 843d 1364 9dbd dba0 9fbd
00000390: 7129 433d 5bbf 25bc d7fd c23b 91f2 273d
000003a0: 604a 263d 256a b73d 4ea0 68bd c82d 8abb
000003b0: 964a 873d 3f61 b8bd fcfb 9dbd 4625 83bd
000003c0: 1b36 803d d30e 9bbd e06f d3bc d8dd 7a3d
000003d0: 0c35 a23d 484d b33d 4c67 cabd 1cbe a2bd
000003e0: e9e0 03bd ae77 4b3d dfe2 103d 08e0 a13c
000003f0: 86b5 023b e697 8ebd c9c2 293d 5548 b7bd
-0.080633104 0.037008062 -0.026125152 0.04585948 -0.041033804 -0.0557325 0.049298532 -0.068035506
0.08330148 0.014936522 -0.016788902 -0.031304635 0.026099838 0.08264631 0.083027974 -0.032408543
0.0051337164 0.093009114 0.06980944 0.018469807 0.0070572123 -0.06446059 -0.034070313 0.015721912
-0.05892483 -0.0401451 -0.054530747 0.07451748 0.10739633 -0.0058201593 0.06824179 -0.0675864
-0.027031792 -0.081696086 -0.08047836 0.10539446 -0.013102627 0.08197234 -0.037780587 0.032737534
-0.046695217 -0.08933901 -0.040128697 0.0263283 -0.08947011 0.08116629 0.032152466 -0.07914837
0.0992027 -0.026568905 -0.063971795 -0.015239558 -0.05177123 0.05659966 0.0042927545 -0.03063482
-0.07128681 0.019932358 0.063183144 -0.00387478 0.07783197 0.05639229 0.038511116 0.013506423
0.025634272 -0.053758822 -0.055142157 -0.08570227 0.046682283 0.012227185 -0.048581585 0.08573055
0.0343118 -0.0020999394 0.016688058 0.053635534 0.021169346 0.0062207105 -0.07951638 -0.02997497
0.06349483 -0.0039176997 0.069765314 -0.07022995 0.06480533 -0.030670412 -0.07821416 0.07124448
0.03349936 0.030273598 0.1076069 -0.076608494 0.10832749 0.015097964 -0.0008733247 0.095924735
-0.087137975 0.013023727 0.007749606 0.016438257 -0.015737165 0.008572271 0.03894701 0.04025125
-0.026857302 0.013767333 0.08559303 0.06185069 0.09164293 0.08388635 0.08384674 0.053044815
0.09464126 0.09970446 -0.021392468 -0.026870659 0.06467184 0.0911395 0.07035771 -0.0028994153
-0.011598758 0.017677741 0.07307111 0.07913649 0.071313135 0.0831832 -0.033195134 -0.0044697844
0.024201127 -0.0892964 -0.04876177 -0.066722445 0.020707982 0.075381756 0.010277713 -0.09204529
-0.062229183 0.09658851 0.06376983 -0.003581564 -0.012534826 0.07523743 -0.07840878 0.06033025
0.043006267 0.024423985 -0.06744168 -0.004836112 0.00994446 0.08551907 0.051500767 -0.091072455
-0.01057531 -0.09175803 0.08796825 0.076597236 0.104923695 0.08053508 0.0724626 0.025820069
0.10355565 0.09814568 0.040645797 0.043595232 0.055257224 -0.069704525 -0.05965186 0.066033624
0.08001398 0.050884236 -0.012032471 -0.044917386 0.08703652 -0.05976017 0.038654804 0.06978165
-0.011226451 0.033667456 -0.037429787 -0.048898697 0.06702294 -0.014771492 -0.039525867 -0.06956743
0.03823493 -0.043878417 0.06897778 -0.082634464 0.10421969 0.061724607 0.0008870193 0.025986642
0.101077564 -0.06726488 -0.009242828 0.079767644 -0.019010035 0.04599958 -0.036877852 0.016499564
0.04827865 0.07285833 -0.07290086 -0.08040229 -0.09613582 -0.033163134 -0.102591135 0.03628407
-0.06472011 0.024193062 0.054778174 -0.071130805 -0.03438681 0.08505591 -0.0828731 -0.05162244
-0.060998894 -0.06709885 -0.026636107 -0.07006721 0.07415398 -0.09867443 -0.09328754 0.011456361
-0.03549855 0.06489251 -0.07685103 -0.077943526 0.047646943 -0.0101164235 0.00595067 0.041002814
0.040598273 0.08955792 -0.056793503 -0.0042168833 0.06606023 -0.09002923 -0.07714078 -0.06403594
0.0626032 -0.07571187 -0.025810182 0.061246723 0.07920274 0.087549746 -0.098829836 -0.07946417
-0.032196913 0.049674682 0.03537261 0.019760147 0.0019944622 -0.06962566 0.041445527 -0.08949343

localAttentionLayer_user.cnn.0.bias f4 [200]
00000000: 1ab4 a9bd a5f5 753c b621 c8bc 9886 603c
00000010: b85f edba ab22 c43d d8e2 b2bd 1e7e aa3d
00000020: 6c3d a0bd 63b2 8c3d 1c3a 823d 93f4 14bd
00000030: 3e6b cb3d d1c8 93bd 00ff a53c b44e 883d
00000040: d15d 3bbd d9ae f13c 7214 cebc 666e 88bd
00000050: ddc0 71bd 1e2a 89bd b3c7 63bd 5a95 a5bd
00000060: efee 983d a246 313b c4ea 58bd d36f 3c3c
00000070: 5076 fe3c 15af c6bd f754 b13d 0211 5d3d
00000080: 61d0 6c3d 9080 86bd 0fd6 79bc 12c7 26ba
00000090: 58ad 92bd a6c7 9bbd 2fd4 1bbd 0279 b33d
000000a0: 3563 f5bb 0981 a6bb 580c 86bc da7a 09bd
000000b0: ac88 efbc 89d3 fdbb 4da7 943c 8344 a5bd
000000c0: bd58 cabb 42c5 563d 32ef efbc 2b0d 7fbc
000000d0: c26d 373c a2b8 5c3c 3e49 32bd f0a5 983c
000000e0: 81a2 9abd 6392 ed3c d28e 1e3d d2ca 563d
000000f0: d7e1 493d a1fb ee3c e558 b6bd 659c 823c
00000100: 104a c3bd 65b8 003d de8a 12bd eacd b4bc
00000110: b4fc e73c 9367 853d 113d a53b 6760 093d
00000120: 1288 11bd 1d4a ae3b f8a2 173d 6d43 a73d
00000130: 223e 9ebd 2ff0 efbc ecb0 4cbd 9c02 9bbd
00000140: 7543 47bd b9c6 ae3d 9cc5 243d 3ce1 993c
00000150: 92c8 f93c 7eac 3a3d 8bce cb3c 8aaf eebb
00000160: 2d5c 153d bd3e 983d 7359 34bd 3f65 fa3c
00000170: 3cea 6abd 12fc 7fbd 8d9d ba3b 507d d93b
00000180: e97a 6e3c 34f9 9dbb 3c85 b8bd 02ee ec3c
00000190: 92d6 a83c 1018 b5bc 5aa4 873b 3da1 9fbd
000001a0: 18fa ddbb 7119 eb3b da81 4c3c 6259 033d
000001b0: dace b0bd 464c 60bc 5e58 10bd d26c 283d
000001c0: 5d9d 7b3d 7b60 223d f8c2 b53d 9757 a8bd
000001d0: c0a4 c4bd 375c 60bd a022 14bc 3920 6bbd
000001e0: 978a 69bd d9f7 8bbd 51bd 253d 2a11 9abd
000001f0: 6b24 9abd a6bd ad3d 3898 953d c146 9f3d
00000200: a10a 6b3d 00ea a63d 8c80 0ebc e2fe a1bd
00000210: 0079 923c 96ab aabd d457 d0bd a792 793d
00000220: b3d5 b63d 9eed b5bd 1148 813d 2a4c fdbc
00000230: 13dd 953d 5477 d7bc ff87 403d 7868 a5bd
00000240: dc39 d0bc 8575 bcbd bea6 64bd 2de6 a3bd
00000250: 9a08 a4bb e26e 43bc 00e1 acbd 8777 3dbd
00000260: 5bb8 ba3d eae6 83bd e0e5 833c e301 f9bc
00000270: b049 3e3c 644e 73bd 03f7 3fbc d590 073d
00000280: e845 923d eede 5cbc a5d7 973c 4417 cb3c
00000290: 3c4d 9cbc 91f0 a7bd 0cd9 dd3c 1555 b13d
000002a0: f885 503d 8da0 15bd b11c 26bd cb9f 9b3d
000002b0: ad2c acbd 2e73 97bc 80a4 913d e8fb 6f3d
000002c0: fe62 81bc 639a 8e3d 6b02 a93d f78f 1fbb
000002d0: 9dfa 17bc f2b4 b0bd 33ad 6a3d 130a 41bd
000002e0: a05e 183d d2d9 023c 5845 8e3d 37a6 a13d
000002f0: 97bb 9b3d 3f1b a63d aabd 8bbd 3bcb e3bb
00000300: d565 9e3b e79f aa3d 37f1 1abd 704f 04bc
00000310: 4773 a0bd 7c94 9c3d c3cf 983d 8c13 53bd
-0.08286305 0.0150121795 -0.024430137 0.013703965 -0.0018110191 0.09576925 -0.08734673 0.08324836
-0.07824215 0.06869962 0.0635874 -0.036366057 0.09932564 -0.07216037 0.020263195 0.066556364
-0.045743767 0.02950232 -0.025156233 -0.06661682 -0.05902182 -0.06697486 -0.05561037 -0.08085127
0.07467448 0.0027050157 -0.052958265 0.01150127 0.031062275 -0.09701363 0.08658784 0.053971298
0.057815913 -0.0656749 -0.015248789 -0.0006362061 -0.07161969 -0.07606439 -0.03804415 0.08763315
-0.007488633 -0.0050813 -0.016363308 -0.033564426 -0.029239975 -0.007746164 0.018146181 -0.08069708
-0.006175129 0.052434213 -0.029288862 -0.015567104 0.011195602 0.013471754 -0.04352688 0.018633813
-0.075505264 0.029000467 0.038710423 0.05243952 0.049287643 0.02917272 -0.08903674 0.015943715
-0.09535611 0.031425852 -0.035776965 -0.022070844 0.02831874 0.06513896 0.00504268 0.033539202
-0.035530157 0.0053188936 0.037020653 0.08167157 -0.07726695 -0.029289333 -0.049973413 -0.07568857
-0.048648316 0.08533997 0.040227517 0.018784158 0.030491147 0.045574658 0.02487876 -0.0072841095
0.03646486 0.074338414 -0.044030618 0.030565856 -0.05735229 -0.062496252 0.005695051 0.006637253
0.014555671 -0.004820967 -0.090097874 0.028922085 0.020610128 -0.0221062 0.0041394653 -0.07794426
-0.0067741983 0.0071746637 0.012482131 0.032067664 -0.08633204 -0.01369006 -0.035240524 0.041119404
0.06142937 0.039642792 0.08875078 -0.082198314 -0.09601736 -0.054775443 -0.009041458 -0.057403777
-0.057016935 -0.068343826 0.04046375 -0.07522805 -0.075264774 0.08483438 0.07304424 0.07777167
0.057383183 0.08150101 -0.00869764 -0.07909943 0.017879963 -0.08333509 -0.10173002 0.060930874
0.08927479 -0.088832125 0.06312574 -0.030920107 0.07317557 -0.026302017 0.047004696 -0.080765665
-0.025418214 -0.092021026 -0.05582308 -0.08002887 -0.005005908 -0.011928292 -0.08441353 -0.04625657
0.09117194 -0.06440528 0.016100824 -0.030396407 0.011614248 -0.05940093 -0.011716607 0.033097107
0.0714224 -0.013480885 0.018535445 0.024791367 -0.019079797 -0.08200181 0.027081035 0.08658806
0.050909013 -0.036530066 -0.040554706 0.075988375 -0.08406959 -0.01848754 0.07111454 0.058589846
-0.015794273 0.06963041 0.08252414 -0.0024347284 -0.009276059 -0.086282626 0.057294082 -0.04712875
0.037199616 0.007986503 0.0694682 0.07893031 0.07604139 0.081106655 -0.06823285 -0.006951717
0.0048339167 0.0833128 -0.037827697 -0.00807558 -0.078344874 0.07645509 0.074615024 -0.051532313

localAttentionLayer_item.attention_layer.0.weight f4 [1, 1, 5, 100]
00000000: 7bfe edbc 86f1 06bd 6858 ab3c 35da 2a3d
00000010: 8b38 2f3d ad49 4dbc b790 9f3b 05e6 863b
00000020: a3c8 0a3c 9e31 debc f403 933c 496b 083d
00000030: c5c8 dbbc 3541 e43c e1b0 19bc 8bd0 b4ba
00000040: eac0 ffbc e5ad 143c f517 d3bc cf1a 903c
00000050: 6ca1 a6bc f511 99bc c825 4bbc 426e 493c
00000060: 9bc6 933a 9bca 953c 3345 8cbc ddee b33b
00000070: 2261 6cbc b8ad 153d 672e 95bc 3157 0bbd
00000080: 3b2f 08bc 461a c0bc 33af 03bd c571 b63b
00000090: 6086 8a3c b658 b13c 42aa 8bbc 2258 ac3c
000000a0: ae60 843c 1263 30bd f3ad f03c 3015 31bd
000000b0: 1ae3 0e3d b47e de3c af75 dcbc f0da a03c
000000c0: b35b 4e3c 5b39 0a3d 90b7 5f3c 3cb4 2a3d
000000d0: d5df 263d 6afe 093d ffbb 233c 9bf7 213d
000000e0: b67b b33c 8817 3c3c 0f29 87bc 3e52 9d3c
000000f0: fe2d 1ebd 535e 93bc 757b b23c a1e6 8d3c
00000100: 6de5 b8bc 4527 b7bb 4861 983b 0287 1abd
00000110: 5511 9fbc 0364 103d 292f 0abd 3972 edbc
00000120: cfdd 86bc 8411 32bd eb01 903c e815 fbbc
00000130: 6363 f3bc a28f ea39 6b35 c33b fd29 f03b
00000140: 97f6 8cbc 7795 deb9 af2a 1c3d 1d28 0c3d
00000150: 6860 11bd 38ad 87bb b509 d73b 17b8 eebc
00000160: 2766 3dbd eb45 c53c 19fd d83c 522a c13b
00000170: 7b79 60bc 2e4a 843c 0c3c 923b 7dbc fb3a
00000180: 6755 f43c 5d2c 063d d916 403c 210b 1dbb
00000190: 2d6b b43c a180 10bd 2c7d 69bc af12 d43b
000001a0: 2b16 18bd 15c8 1ebc 4ea8 283d b05a 0ebd
000001b0: 0fa3 88bb 05f7 f13c 7095 50bc f770 81bc
000001c0: a051 ff3b 497b 113d d9c4 b13b b435 fbbc
000001d0: 3686 1fbd 6821 bcbb 7b0d f4bb 176f 893c
000001e0: acf7 b63b 1733 32bd 6977 c03c 67fb 1b3d
000001f0: 0565 2b3d 2edf 213d 9b59 253d 81b0 783c
00000200: 401b 2cbd b724 efbc 684e 103d edfe c0ba
00000210: 6e54 d43c 5cc9 243d 0a93 2dbc 4435 eb3c
00000220: f056 c6bc ed1a 2c3d ef4c 6fbc 3807 183d
00000230: 1230 df3b 0b44 aebc 7857 46bc 2c09 37bd
00000240: 98b2 0d3d f3cc 03bc 5537 0cbd 963a 0bbd
00000250: 25c2 38bd fe68 00bd dced 833c 2ebc 2c3d
00000260: d612 0a3d 9921 803c be3b 0f3d d7a7 c1bc
00000270: 83d4 183d 33fa 22bd 9256 29bd ccdf 84bb
00000280: 93c3 8d3c dc5f e1bc 10d9 25bd fe89 0ebd
00000290: b21a 253d 5831 cabc 2d0e 3dbd f056 03bc
000002a0: b9e5 2f3c f1d0 28bd 47d0 b23c 9119 6e3b
000002b0: a193 ee3c b551 0c3c 5938 963c 6cd3 00bc
000002c0: 1bf5 c73c 92ec 053c 898e 803c d4b8 49bc
000002d0: f6e3 913c bbed f5bc ef0e c73c 0ec1 81bc
000002e0: a89f 903c a99f f83c ebb7 023c 7d27 df3c
000002f0: 8908 39bd 6541 f93c 1691 183d 99c0 263d
00000300: 0e1f 083d ef9d 85bb eac7 d0bc 9df7 2dbd
00000310: 3118 c83a 82af 913c 1a68 3839 3f7d 173b
00000320: cbc6 3d3c b366 8cbc 138e 203c ba98 acbc
00000330: 6fe2 3dbd dbd8 05bd 6ff2 0ebd 79bb 47bd
00000340: 849e 7f3c 09b3 703c 6551 cb3c ac93 30bc
00000350: 538f 2abd d624 d03c 704e c5bc de33 213c
00000360: 2ad0 2d3b 1afd 9bbc 57e2 c9bc a12d 42bd
00000370: dcbf 4bbd 465f 5dbc 79ea 6a3b acea aabc
00000380: b4da a539 ccb6 fe3c c8a4 febc bc28 db3c
00000390: 1fe9 04bd 83bc 31bd d4c7 763c 3015 7abc
000003a0: 8b96 073c 0484 38bd 323f febc cf36 a13c
000003b0: 4538 0b3d 2574 0d3d 6ffa 8c3c db28 f23c
000003c0: 44f8 6ebc 76ac 99bc 065b 043c 8a34 0cbd
000003d0: 969b ef3c 804b ebbb 1bd3 7cbc 9d34 fabc
000003e0: e926 af3b 4639 7e3c de43 16bd 0ddb debc
000003f0: dd6e 0ebd 7523 4dbd 6755 98bb 5515 73bc
-0.02905201 -0.03294518 0.020916179 0.041712005 0.042778533 -0.012529773 0.0048695463 0.004116776
0.008470687 -0.027123269 0.017946221 0.03330544 -0.026829133 0.027863124 -0.00938055 -0.0013795061
-0.031219918 0.009074663 -0.02576826 0.017590908 -0.020340644 -0.01868532 -0.0123991445 0.012294354
0.0011274399 0.018285086 -0.01712284 0.005491121 -0.014427455 0.036542624 -0.018210603 -0.0340187
-0.008312042 -0.023450028 -0.032149505 0.0055677616 0.016909778 0.021648746 -0.017048959 0.021038119
0.016159382 -0.04306323 0.02937982 -0.043233097 0.03488455 0.027160026 -0.026911585 0.019635648
0.012595105 0.033746105 0.013654605 0.04167579 0.040740807 0.033689894 0.009993552 0.039542776
0.021909576 0.01148022 -0.01649907 0.019204255 -0.03861808 -0.017989313 0.021787385 0.017321886
-0.022570336 -0.005589398 0.0046502687 -0.03772641 -0.019417444 0.03525163 -0.03373638 -0.02898513
-0.016463188 -0.043473735 0.01757904 -0.030650094 -0.029710477 0.00044738973 0.0059572957 0.007329224
-0.017207427 -0.000424545 0.038126644 0.034217943 -0.03549233 -0.0041405223 0.0065624365 -0.029140515
-0.04624 0.024081191 0.026487874 0.0058949376 -0.013700838 0.016148653 0.0044627246 0.0019205954
0.02982588 0.032757152 0.011724197 -0.0023962932 0.022023762 -0.03527892 -0.014251035 0.006471954
-0.037130516 -0.009691258 0.041176133 -0.034754455 -0.0041698287 0.029536733 -0.012730941 -0.015800936
0.007791713 0.035517965 0.0054250774 -0.030665256 -0.038946353 -0.005741287 -0.007447896 0.016776605
0.005583724 -0.043505754 0.02349444 0.038081553 0.041844387 0.03951948 0.040368658 0.015178801
-0.042018175 -0.029192312 0.035231024 -0.0014724411 0.025919165 0.040231094 -0.010594139 0.028711922
-0.024211377 0.042017866 -0.014605745 0.03711626 0.0068111503 -0.02127268 -0.012105815 -0.04468648
0.03459415 -0.008044469 -0.034232456 -0.03399142 -0.045107026 -0.03135013 0.016104631 0.04217165
0.03370937 0.01564102 0.034969084 -0.023639603 0.037312042 -0.03978939 -0.041342326 -0.004054999
0.017305171 -0.02751153 -0.04049021 -0.03479957 0.04030866 -0.024681732 -0.046156097 -0.008016333
0.0107359225 -0.041214887 0.02182783 0.0036331157 0.02912313 0.008564402 0.018337416 -0.007862907
0.024408868 0.008174079 0.015692966 -0.012312133 0.017808896 -0.030020585 0.024299113 -0.015839126
0.017654255 0.03034957 0.00797842 0.02724051 -0.045174155 0.03042669 0.03724774 0.04071102
0.03323274 -0.004077665 -0.025485951 -0.04247247 0.0015265999 0.017783884 0.00017586388 0.0023115424
0.0115830405 -0.017138815 0.009799498 -0.02106892 -0.046358522 -0.032677513 -0.03489917 -0.048762772
0.015601758 0.014691123 0.024819085 -0.010777395 -0.04164059 0.02540819 -0.024085253 0.009839026
0.002652178 -0.019041587 -0.02464406 -0.047406796 -0.04974352 -0.0135114845 0.0035845323 -0.020863853
0.000316342 0.031093024 -0.031084433 0.026752822 -0.032448884 -0.04339267 0.015062291 -0.015263841
0.008275638 -0.045047775 -0.031035993 0.019679455 0.03398921 0.034534592 0.01720926 0.029560497
-0.014585558 -0.018758994 0.008078342 -0.034229793 0.029248994 -0.007180631 -0.015431191 -0.030542666
0.0053452146 0.015516585 -0.036685817 -0.02720406 -0.034773696 -0.050082643 -0.0046488526 -0.014836629

localAttentionLayer_item.cnn.0.weight f4 [200, 1, 1, 100]
00000000: 0b14 3a3d 4411 6fbc ba24 fcbc c0e0 6f3c
00000010: dbf2 2abd 2d75 af3d 1da0 fb3b 247e 923d
00000020: f061 5a3d 5a26 c0bc 30c4 bbbc 3234 373c
00000030: 7395 093d 2d4e a93d 464b ca3d 7cfd abbd
00000040: 86b8 84bd 267c 25bc 1d79 19bd 93cd a0bd
00000050: 18bd 803d 6fca 953c b769 6bbd 2d29 c03b
00000060: 8d6c 4b3d 8f4f a7bd 295c 97bc 2334 ba3d
00000070: 2dc3 8f3d 4ce4 76bd 0070 57bc 385f 89bd
00000080: 0069 903d 1521 2abd d710 d1bc 1cb2 663d
00000090: 871e 09bd 0ebc c73d 4283 5fbd a01b b1bd
000000a0: 66c0 78bb cb99 b9bd 6fec acbc 2f5e 9e3d
000000b0: 3b2c 2cbd bec1 31bd 8e76 b83d 07d4 b8bd
000000c0: 5594 a5bd b1a1 15bb 33b6 a8bb a173 1fbd
000000d0: 7fd2 ba3d 75dd 113d 6077 56bc 3ed9 bd3c
000000e0: d969 553d b8ee b43d 628a 7ebd 341d a9bd
000000f0: 75bf 103d 9128 023c 34ae e6bc 0be1 713d
00000100: 4df6 b7bc 4143 563c 1497 54bd 2d29 3a3c
00000110: e570 153d a00a e23c 40db 7dbc f0f3 a4bd
00000120: 5be8 223d 0e79 e83b 1bee 573d 3254 453c
00000130: 3ad5 9cbd 22ba bfbd daaa a5bd 2abe 71bd
00000140: eec0 aa3c 9163 f5bb 0656 9e3d 0a74 98bd
00000150: b46d 703d 55e7 57bd 3771 bd3c 774f 863d
00000160: b59b bb3d 9d8a d2bc 1f2c 623d 8e58 b83c
00000170: 8b10 7c3d 2f86 9ebc 776a 473d 65bc 09bd
00000180: 35c7 b1bd 88ea dcba 29b4 9f3c 9c2c 9dbd
00000190: 038a c83d 9b99 a5bd e846 5c3d ab66 ca3d
000001a0: 50c8 babd 429f 973d 5784 873d e598 323d
000001b0: 11b3 8fbd c79c 3fbd d44d 9c3d a739 033c
000001c0: 3de8 d63d ad93 9ebd eea3 0cbd 8ad6 803d
000001d0: 2ac7 afbc a83d afbd b2bc 7e3d 5be0 863c
000001e0: 9b5c d03c 6083 d43c 9cd7 a23d ab50 c93d
000001f0: 2e27 433d 814b 613c a6b0 9e3d d076 27bd
00000200: a0f7 863d 878a ef3c 4c69 8dbd f2f9 a33d
00000210: a2a4 a3bd 727f a63d f370 c73d 34d8 833d
00000220: 506c d73d c629 a0bc 92ed 30bd 0397 39bd
00000230: a441 bc3b 6ad2 08bc 2a5c 14bd e44f 09bd
00000240: c851 883d 8507 ffbc 3520 afbc 773e d83d
00000250: e385 703d 3ea6 b33d 20be 50bd c03e b4bd
00000260: aaa2 553d 6d39 84bd 9565 773d c679 91bd
00000270: 0384 c13c 7bd9 4ebd 660f c8bc 10d0 e03c
00000280: 0484 f73c e144 babc 1d4b 8d3d 053a 023d
00000290: d7df 6a3d 78a2 823d 8a98 343d 9025 d93d
000002a0: 4cea b6bd ac34 553d 0b48 b6bd 25b5 f13c
000002b0: e266 5a3d 074d 493d 0414 123d 6c47 80bd
000002c0: 43fa 95bc 3c6f 623d e0a7 8b3d 6015 933d
000002d0: ac6f c83d 2f31 a6bd 7b9b 8dbd 9790 37bd
000002e0: b497 1d3d 3faf 9e3c 518a d03d bb40 d33c
000002f0: d6f7 38bd e127 cd3d 6930 bdba 2be0 e3bb
00000300: cbc5 193d c19c ddbc d208 6ebd 300b d83d
00000310: 8786 833d 3adf 00bd c8e3 1fbd 488b 4ebd
00000320: 1059 593d a84d 8d3d 3e46 ad3d a8b8 413d
00000330: 8bd5 8fbb 0467 f03c 923d f8bc cf9a a13d
00000340: 3a7f 90bc 2164 5abd 1b5b 28bd 731d 943d
00000350: 4249 5c3d 8f61 6c3c 15f7 5f3d 86ca 52bd
00000360: b2c6 c1bd 0924 b9bd ceb7 3c3b 7da8 36bd
00000370: 2514 edbc 91d3 ac3c d02f b2bd 3aa7 94bd
00000380: 46b2 d0bd b91d 483c fbe6 003d 26a2 323d
00000390: 4cda 383d a1df 8fbd aedc bb3d 42cc c7ba
000003a0: aecc 583d 87a2 ac3c 85c4 75bd 2eba 8bbd
000003b0: f0ce b2bd 3368 28bd bb0f 5a3b 56f9 ba3c
000003c0: b4f4 51bb 5c6b 1a3c 4105 4c3b 6529 a1bd
000003d0: 961f b3bd be90 603d 516c a63c a309 c9ba
000003e0: a2ed e6bc 8526 64bd 050e 17bb d94d dcbc
000003f0: 4817 9e3c ee75 cf3c 5c3d 4abd 9ae2 0b3d
0.04542927 -0.014591519 -0.030779231 0.014640987 -0.04173551 0.085672714 0.007678999 0.07152966
0.053316057 -0.023455787 -0.022920698 0.011181878 0.03358979 0.08266864 0.098776385 -0.08397958
-0.064805076 -0.0101004 -0.03746902 -0.0785171 0.06286067 0.018285004 -0.057473864 0.0058642835
0.04966407 -0.081694715 -0.018476563 0.090919755 0.07019649 -0.060276315 -0.0131492615 -0.06707615
0.07051277 -0.041535456 -0.025520725 0.056322202 -0.03347638 0.097526655 -0.054568537 -0.08647847
-0.0037956475 -0.09062537 -0.021108834 0.07732808 -0.04203437 -0.043397658 0.090069875 -0.09024816
-0.08084933 -0.0022831971 -0.005148673 -0.03892863 0.0912218 0.03561159 -0.013089985 0.023174878
0.052102897 0.088345945 -0.06214369 -0.08257523 0.035338838 0.007944242 -0.028159238 0.05905251
-0.022456313 0.013077558 -0.05190189 0.011362356 0.036484618 0.027592957 -0.015494168 -0.0805434
0.039772373 0.007094509 0.05271731 0.0120439995 -0.07657857 -0.09361674 -0.08089228 -0.059019245
0.02084395 -0.007488676 0.077312514 -0.07444008 0.05869837 -0.05271085 0.023125274 0.065581255
0.09160558 -0.025700862 0.05521786 0.022503164 0.061539214 -0.019351093 0.048685517 -0.033626933
-0.08680574 -0.0016854564 0.019495087 -0.07674524 0.09791949 -0.080859385 0.05377856 0.098828636
-0.09120238 0.07403423 0.06617039 0.043602843 -0.07016576 -0.046780374 0.07632032 0.008009351
0.10493515 -0.07743011 -0.034336023 0.0629092 -0.021457274 -0.08556682 0.062191673 0.016464403
0.025434783 0.02594155 0.079512805 0.09829839 0.047644787 0.013750912 0.07748537 -0.040884793
0.065901995 0.02924086 -0.069048494 0.08006658 -0.079903856 0.08129777 0.0973834 0.06437722
0.10518706 -0.01955117 -0.043195315 -0.04531003 0.0057451297 -0.008350948 -0.036220707 -0.033523455
0.066562235 -0.031131515 -0.021377662 0.10558789 0.058721434 0.087719426 -0.050962567 -0.08801031
0.05215708 -0.064562656 0.06039961 -0.071033046 0.023622518 -0.050500374 -0.024421405 0.027442962
0.030214317 -0.022737922 0.06899092 0.031793613 0.057342377 0.06378645 0.044090785 0.106028676
-0.08931407 0.052052185 -0.0890046 0.029505322 0.053320773 0.049145725 0.03566362 -0.06263623
-0.01830781 0.055281863 0.06819129 0.07181811 0.09786925 -0.0811485 -0.06914421 -0.044815626
0.038474753 0.019370673 0.10182632 0.025787702 -0.04515823 0.10017372 -0.0014433983 -0.006954213
0.037542146 -0.027052285 -0.05811388 0.10549009 0.064221434 -0.031462885 -0.03903559 -0.050425798
0.053063452 0.068995774 0.08460663 0.047295243 -0.00438947 0.029345997 -0.030302797 0.078908555
-0.017638791 -0.053318147 -0.04110251 0.072321795 0.0537808 0.014427557 0.054678995 -0.051462673
-0.09461726 -0.09040076 0.002879608 -0.044594277 -0.02894027 0.021096976 -0.08700526 -0.072584584
-0.10190253 0.012214118 0.03147028 0.043611668 0.04513006 -0.07025076 0.09172951 -0.0015243369
0.052929573 0.021073593 -0.06000187 -0.0682262 -0.087308764 -0.041114997 0.0033273536 0.02282397
-0.0032036724 0.0094250105 0.0031131061 -0.078692235 -0.08746259 0.054825537 0.020315321 -0.0015337955
-0.028189484 -0.055700798 -0.0023049128 -0.02689259 0.01929821 0.025324788 -0.049374923 0.03415165

localAttentionLayer_item.cnn.0.bias f4 [200]
00000000: 0b34 a1bd 286f 893d c654 833d 5a35 ac3d
00000010: fcdf 70bc 386e 233c 572e 9fbd 77fb bb3c
00000020: 6421 653d df0d 833d 07cb 103d c162 873d
00000030: 1535 5d3d 9484 deba 1ff9 9a3d 926a 673d
00000040: b01d afbd 87d3 dcbc d93f 413d 0f6d 813b
00000050: 3e78 64bd 9c15 8bbd b67e 1ebb ffbf 943c
00000060: 0e03 95bd bb89 9b3d 5e75 093d f9c3 543d
00000070: 1014 503d d8f2 b4bd 4fd5 db3c bf26 bcbd
00000080: baa8 763d cdb4 a73b 6b65 4f3d 0791 bbbd
00000090: a0a9 b3bd 60ee 6f3a 4739 a73c 65c9 9cbb
000000a0: 6b00 c0bd 2265 4b3d 0989 06bd 2218 b83d
000000b0: 0d8c 10bc c66f c33d be63 4e3d 762c 9cbd
000000c0: 536b 2f3a 28d1 2cbc 4bbe b8bd 010c 2d3d
000000d0: 0667 adbd 7ee2 593c 8cce ba3d e73e 07bd
000000e0: 7e47 a63c 9156 463d b73c 953d cee9 8cbc
000000f0: 24d8 323c 6410 63bc b725 353d 1752 99bd
00000100: 7eba 38bd a177 e03d 7a86 a03d 0d0b 543b
00000110: b223 9e3d 7f26 88bd 19dd 6c3c 6158 163d
00000120: 4634 263d 9b51 013d 7b47 dbbb d2a7 343c
00000130: 6dc3 2f3d 81cb 523d e12a 00bd 9176 433d
00000140: 1e27 ae3c ca08 a5bc ed40 8dbb b295 b13d
00000150: 3f83 b53d 4aa9 b7bd 190f f8bc 8a3d 46bd
00000160: 2410 97bc eed0 fc3b 714a a23d f8b4 423d
00000170: 62e6 a13c e4aa a3bd d464 84bd 8ad6 023b
00000180: 7daf 203c 638d 603d a415 51bd 1cfc 0b3d
00000190: 595b a8bd f056 94bd 0c09 a7bd 2d21 a8bd
000001a0: c2fe 26bd 6dc0 793d 62e0 a3bd a1c8 a4bc
000001b0: 5e40 883d 8a75 bfbb c981 a0bd 5ffd c6bd
000001c0: 28cf a83c 6768 1f3d ee6b 823d 7782 adbd
000001d0: 0945 5d3d 92eb 94bd 1775 f83c 73f9 8d3c
000001e0: 7360 ebbc 1f4b 9c3d 54a3 91bc 4fdd 3c3d
000001f0: 34e1 92bd dff2 d2bc f019 9abc 351c b43d
00000200: f680 03bd 4544 51bd d145 993d 594a 653d
00000210: a678 23bd c283 b8bd 740c d33c d90c c6bd
00000220: 85c4 643d f2bb 4d3d c35d 213d 64f8 183d
00000230: 7aa8 793d 6989 c2bc 9452 753d 53d9 e03c
00000240: 911a 6d3d 35cd babd 3e0a 32bb 1a42 913d
00000250: 5f9d b23c d5b4 86bd 9723 ed3c e2e3 ca3c
00000260: 0ae5 f53b c70c af3d a7b5 9a3d 86eb 39bd
00000270: 7214 b4bd 24dc 313d a8e1 e83c 975b 93bd
00000280: 1aa0 30bc c2be c0bd 263b 5abd 4387 85bd
00000290: b785 5abd 0e31 6dbd 6062 7a3d f313 943c
000002a0: 6c51 a1bd 83d9 18bc ad56 d23b 9634 323d
000002b0: cfe9 6f3c f8fe f83c 67a2 39bc b9c4 463d
000002c0: 5949 ce3d 1473 63bc 81f1 e23c 52f6 d0ba
000002d0: 31a8 88bd 76d4 4fbb 0b45 463d 5c61 83bd
000002e0: 8c97 d5bd 9e5c 89bd c325 20bd 9428 43bd
000002f0: b01f b53d 05f5 edbc 8fd7 9f3d 8113 aabc
00000300: c596 67bd 501a 0e3d 4fd2 02bd d6a8 9a3c
00000310: 86d3 a33c 7136 18bd c6d3 223b 53b9 3dbd
-0.078712545 0.067106545 0.064126536 0.084086135 -0.01470184 0.009975009 -0.077725105 0.022947056
0.055940047 0.0639913 0.035349872 0.06610633 0.0540057 -0.0016976767 0.07567047 0.056498118
-0.08550584 -0.026956333 0.04718003 0.0039497684 -0.055778734 -0.06791231 -0.0024184412 0.018157957
-0.07275973 0.075946294 0.033559196 0.051944707 0.050800383 -0.08835381 0.026835112 -0.09187078
0.060219504 0.0051179887 0.05063383 -0.09158521 -0.08772588 0.0009152647 0.020413054 -0.0047847503
-0.0937508 0.049656995 -0.03284553 0.08988978 -0.008822453 0.095428035 0.05038809 -0.07625668
0.0006691713 -0.010547914 -0.090206705 0.042247776 -0.08466916 0.013298629 0.09121427 -0.033018973
0.020297762 0.0484224 0.07286971 -0.01720133 0.01091579 -0.013858888 0.04422542 -0.074863605
-0.045099728 0.109603174 0.07838149 0.003235522 0.07721652 -0.066479675 0.014457011 0.03670538
0.040577196 0.031571966 -0.0066918707 0.01102634 0.042910982 0.051463608 -0.031290893 0.047720496
0.021258887 -0.020145793 -0.0043107183 0.0867113 0.08862924 -0.08967836 -0.030280637 -0.048398532
-0.018440314 0.007715336 0.07924355 0.047535866 0.019763175 -0.07991579 -0.06464544 0.00199643
0.009807465 0.054822337 -0.05104603 0.034175977 -0.08220548 -0.072431445 -0.081560224 -0.08209453
-0.0407703 0.060974527 -0.08001782 -0.020115199 0.06652902 -0.005842869 -0.078372546 -0.097162955
0.020606592 0.038917925 0.06368242 -0.0847215 0.054020915 -0.07271494 0.03032927 0.01733086
-0.028732514 0.07631516 -0.017778076 0.046109494 -0.0717186 -0.025750576 -0.018811196 0.087944426
-0.03210541 -0.051090498 0.074840195 0.055979107 -0.03990998 -0.09009506 0.025762774 -0.09670419
0.055851478 0.050228067 0.03939606 0.03734626 0.060951687 -0.023747163 0.059893206 0.027447378
0.057886664 -0.091211714 -0.002716675 0.07092686 0.021803556 -0.0657746 0.028947635 0.024766866
0.00750411 0.08547359 0.07554179 -0.04539063 -0.08792962 0.043422833 0.028427914 -0.07195204
-0.010780359 -0.09411384 -0.053279065 -0.0651994 -0.053350177 -0.05790811 0.061128974 0.018075919
-0.07876858 -0.009329203 0.006419024 0.04350718 0.014643147 0.030395016 -0.011330224 0.048527453
0.10072584 -0.013882417 0.027703049 -0.001594255 -0.06672705 -0.003171233 0.04840569 -0.06415054
-0.10429296 -0.067071185 -0.039098512 -0.04764612 0.088439345 -0.029047498 0.078047864 -0.020761253
-0.05654027 0.034693062 -0.031938847 0.018879335 0.019998323 -0.037161294 0.0024845465 -0.046319317

fcLayer.0.weight f4 [500, 200]
00000000: 8be4 8b3d a3e2 353d f8cd 61bd 4e26 33bc
00000010: d7c1 d2bc e12c 093d e4a1 acbd 7c33 8fbd
00000020: 743a af3c 1902 133c 7556 603c 3b69 e33c
00000030: f2da 963b 8e50 053d c9c0 583d 142b b83c
00000040: 82ae fe3c 5341 7fbd 438e 993d 8593 f43b
00000050: 2dcd 1dbd 2c88 003c 197c 84bc 1764 4cbb
00000060: 3e24 6fbd df57 5c3c 3360 87bd a43c 403d
00000070: 675a 4bbd b2bf 503d d6aa f6bc ed6e 87bd
00000080: ceef 1d3c 4a78 4b3d b97e 0a3d f9e8 6abd
00000090: 2761 fb3c 58b5 ba3c fc13 423d 6f66 1e3d
000000a0: 11ad 673b cbe6 6ebc 972c ef3c 1141 693d
000000b0: 6506 21bd 94cf 64bd 5571 4f3d 1ccd 46bd
000000c0: 9f84 90bc eaa0 683d 5b62 fbbc 41b6 e83c
000000d0: 8c1e 7dbd 9018 95bd 113c 813c 9e3f d8bc
000000e0: c897 2bbd db6a 8abd 435a 683d 744f b9bc
000000f0: 828c 783d 0846 233d 9716 383d 1846 0fbd
00000100: 6bb5 9d3c 25f3 bb3c aa36 493d ae83 10bd
00000110: e311 52bd 5ade d23c caa2 87bb f8f1 7b3d
00000120: 9ae2 203d ef68 81bd e9e1 01bd 110f 233d
00000130: ee1d 54bd 96ea c5ba e90e 963d 5d1c 1f3d
00000140: 9bbf 963d 5de3 fdbc ec84 c4bc 245c 4abd
00000150: 5a5a 0d3d a9e5 5c3d 635d f53c df3b b2bd
00000160: 62e6 0f3d bb98 2b3d cf6e fc3c 39c3 fbbc
00000170: d0f5 d5bb 859e 2b3d f229 2d3d 87a9 133d
00000180: 2579 70bd 450e f63c 91e7 813d 608f 57bc
00000190: b3fe 07bd de40 0f3d 8566 6dbd 7348 cfbb
000001a0: d8b8 a13c 1851 8d3b 720e 9fbb 1e99 7abd
000001b0: 2e98 79bd a307 73bc 0298 98bd 9e9d 163d
000001c0: 137c e83c dc61 8abd 0161 20bc f8f3 933c
000001d0: c0a9 a0bc c4e2 2dbc 2c90 5abd 4da5 9a3c
000001e0: ebf5 223c 97ba 1f3c f71b cc3b 1544 2abd
000001f0: f599 483d 71da 55bd 4659 933c 1339 debc
00000200: 1d8f 6b3d 91a2 503d d723 833b e521 f43c
00000210: 60b1 dabc d700 513c c458 fd3c e28b 193c
00000220: da8c 56bb e79b 1bbd 65db 90bc aa78 273d
00000230: 70c3 22bd 8a13 67bd 9fad 86bd 9111 60bd
00000240: 21e8 5fbd e432 4a3c a3ce 9cbd 5b27 ca3b
00000250: e57e 143d b97f 753d e514 0ebd cf4e 61bd
00000260: 1e19 afbd ab77 afbc 0f85 82bd 3da3 0a3d
00000270: 190e a33b b4f5 0c3d 75e1 4e3c 2a1f 10bd
00000280: c0f2 163d 5f5b 12bd 5bc9 4bbc 30aa d9bc
00000290: f021 2d3d dd1b 2dbd f825 8abd 05a5 843d
000002a0: 07d0 4cbc 723c 373b b09e 23bb 2721 31bd
000002b0: b73d 18bd 3d9c 9c3c 426d 1c3d 5c9a 27bb
000002c0: 332d 873d 29cc 373d f739 00bc 28e1 533d
000002d0: a0bd 9bbc 03ec 54bd 80f4 343d 915e 9d3c
000002e0: a796 033d 5863 22bd 5114 42bc b5c0 8a3c
000002f0: 9ed2 65bd a977 573d aa79 bfbb d325 39bb
00000300: 4947 16bc 114e 683d aeb2 05bd 3ce0 91bd
00000310: 92ea 9a3d b7af 073d 97e2 b1bd d991 94bc
00000320: 018f e43c b7a5 8bbd 096d 0d3c 1f1f 17bd
00000330: 31e5 183b 75a6 5dbd 055d d8bb d137 0cbd
00000340: 1764 843c bb8e 863d f58c ff3a e013 08bd
00000350: 181c 15bd 89ee c33c 2672 72bd 382a 3ebc
00000360: e2dd e23c c1bc 613d 4905 02bc 042d 443d
00000370: ef61 b03c 9136 fd3c 4ae9 3bbd d87a 6b3d
00000380: f9e4 81ba b2a9 993c 601d 823d 07ca 0f3d
00000390: c5de f23a 0fa4 163d 0060 343d af50 093c
000003a0: 500e 883b 0d97 863c b837 dabc 176e 6dbc
000003b0: 1b19 553d 41bd 1a3c c0e9 643d eea7 8cbc
000003c0: 3b1e 013d a05f 2fbb 640f 933c 3926 b5bc
000003d0: 826f 843b 0fa5 403c 2e05 653d 11f0 693d
000003e0: e598 56bc 8f2f c9bc 196d 003d 6c97 bf3c
000003f0: e34c 68bd 0e56 19bd be38 283d 7ae0 043d
0.068307005 0.04440559 -0.055128068 -0.0109344255 -0.025727196 0.033490065 -0.08429316 -0.06992242
0.021390177 0.008972668 0.013692488 0.027760139 0.004603737 0.032547526 0.05291823 0.022481479
0.031089071 -0.062318157 0.074978374 0.0074638748 -0.03852575 0.007844966 -0.016172456 -0.0031187588
-0.058384173 0.0134486845 -0.066101454 0.04693283 -0.04964676 0.050964065 -0.030110758 -0.06612954
0.009639693 0.049675263 0.03381226 -0.057351086 0.030685974 0.02279155 0.04738234 0.038671907
0.0035350958 -0.0145813925 0.029196067 0.056946818 -0.03931274 -0.055862024 0.05064519 -0.04853545
-0.017641364 0.056794085 -0.030686548 0.028407218 -0.06179671 -0.072800756 0.015775712 -0.026397523
-0.041892797 -0.06758662 0.056726705 -0.022620894 0.060680874 0.03986171 0.04494342 -0.034978956
0.019251546 0.022943089 0.049124397 -0.03528183 -0.05128659 0.025740791 -0.004139279 0.061510056
0.039278604 -0.063188426 -0.031709585 0.03980929 -0.051786356 -0.0015099819 0.07327063 0.03884541
0.073607646 -0.030992204 -0.023989163 -0.04940428 0.034509994 0.05392996 0.029951757 -0.08702826
0.03513182 0.041893702 0.030814556 -0.030732738 -0.0065295473 0.041899223 0.04227633 0.036050346
-0.058709282 0.030036101 0.06342996 -0.013156742 -0.033201884 0.03497397 -0.0579591 -0.0063257753
0.01974146 0.0043126456 -0.004854017 -0.06118118 -0.060936145 -0.014833364 -0.07450868 0.03677141
0.028379476 -0.067569464 -0.0097887525 0.01806067 -0.019612193 -0.010613147 -0.05336015 0.01887765
0.009946327 0.009749076 0.0062289196 -0.041568834 0.04897495 -0.052210275 0.017986905 -0.027126824
0.05750953 0.050936285 0.004002075 0.029801318 -0.026695907 0.012756548 0.030926116 0.00937173
-0.0032737763 -0.037990477 -0.01768274 0.04088656 -0.039737165 -0.05641512 -0.06576084 -0.054704253
-0.054664735 0.012341235 -0.076566 0.0061692423 0.03625383 0.05993626 -0.034687895 -0.0550068
-0.085497126 -0.021419367 -0.06373035 0.033847082 0.004976046 0.03441401 0.012626995 -0.03518597
0.0368526 -0.03573167 -0.012438144 -0.02657041 0.042268693 -0.0422629 -0.06745523 0.064767875
-0.012500769 0.0027959612 -0.0024966411 -0.043244507 -0.03716823 0.019117469 0.038190134 -0.0025574183
0.06600418 0.044872437 -0.00782632 0.051728398 -0.019011319 -0.05198289 0.044178486 0.019210132
0.032126095 -0.039645523 -0.011845664 0.016937593 -0.056109063 0.05260435 -0.005843361 -0.0028251305
-0.009172269 0.056715075 -0.032641105 -0.071228474 0.07564272 0.03312656 -0.08685797 -0.018135952
0.02790022 -0.06818717 0.008631953 -0.036894914 0.0023329968 -0.054113824 -0.0066028857 -0.03423292
0.016161008 0.065701924 0.0019496965 -0.03322208 -0.036403745 0.023917453 -0.05919089 -0.011606745
0.027693693 0.05511165 -0.00793583 0.047894493 0.021531073 0.030909808 -0.04587678 0.0574902
-0.0009910158 0.018757675 0.06353259 0.035104778 0.0018529525 0.036777552 0.044036865 0.008381053
0.004152097 0.016429449 -0.026637897 -0.0144915795 0.052025896 0.009444536 0.055886984 -0.017169919
0.03152297 -0.0026759878 0.017951675 -0.022112953 0.004041613 0.011758103 0.055913143 0.05711371
-0.013097976 -0.02455881 0.031354044 0.023387633 -0.05671395 -0.037435584 0.04106974 0.03244064

fcLayer.0.bias f4 [500]
00000000: 7754 863d 0117 85bd 35e1 7ab9 a84a f33c
00000010: af51 b33c 1fe1 453d 31fe bebc b43c 81bc
00000020: ad43 d53c 9c81 793d a8fa 5ebd 12b5 3ebc
00000030: 73b8 ecbc 59d8 803d c64d 153d 150e 263d
00000040: ff47 533c fa1f 54bc ece3 0b3d c9df ccbc
00000050: 56ee e23c f247 56bc 3d1d d23c 498f 9a3c
00000060: 63aa 68bc 9134 c33c 65ac f53c 6918 5c3c
00000070: 9395 9b3c 3427 bfbb 6f14 0c3d bc08 d2bc
00000080: ded7 a03d 9ba2 fc3c 8c76 513d c1c0 7ebd
00000090: 6c7b d43a c9ef 06bd fe90 9d3d 01f7 f43c
000000a0: 0256 dbbc c8b9 d93c ba0e 1dbc 7906 8d3d
000000b0: de74 23bd d55a 2a3d da46 7f3d 8016 14ba
000000c0: 149f 6cbc cf3b 3ebd ce8c 763d 9c0f 793d
000000d0: f5d5 2b3c ec37 1e3d 27b1 41bd babd 02bd
000000e0: 1af6 8abd 6c0b 46bd 324a d0bc 5bcc 043d
000000f0: 70d3 863c 920d 4abb 7e48 6f3d 18e0 323d
00000100: 1df5 523d 69b4 2fbd 6ccf 923d b901 f8bc
00000110: b904 393d a32b ce3b bf17 873d e553 143c
00000120: 80b6 103d 1337 70bc 03fb 893d b4a8 8fbd
00000130: b778 f0bb 7887 18bd 0165 51bd 086d d03c
00000140: fd48 563d 2b02 003d c2f5 513c 70b9 3e3c
00000150: e3d3 093c b35c 8e3d cce7 83bd 199a 473d
00000160: 44d1 b53c a15f 9b3c 52d2 b13c f880 78bb
00000170: f147 f63c 9e1c eabb 13dd 803d 062c 243c
00000180: 6d4f 78bc 1948 84bd 251a 0d3d 6fb1 94bc
00000190: d7be 4bbc 33ca 84bb ba52 27bd dfb7 c33c
000001a0: c222 b63c ae14 053d 44a6 93bc 534e 503d
000001b0: 3c62 803d 5c28 8abd f45a bd3c 8816 61bd
000001c0: 9989 013c dd6c 0e3d cef4 43bd 6dcc fdbb
000001d0: de0b 85bc fb24 933d de97 46bd 4258 26bd
000001e0: 98cb b3bb 2ab4 65bc 27e0 f63b 2b92 0bbb
000001f0: f937 e33c 5df8 4ebc f5cb 693d e7ec 2e3c
00000200: cfa9 fa3c fd86 273d 4234 833d 16ef a33d
00000210: 7959 5c3d 603c 923d 7453 d3bc 8c7a 123d
00000220: 557b 443d 82f8 2a3d 2b85 063d 8b07 733d
00000230: e300 2f3d 4557 fcbb d504 56bd 0675 0ebd
00000240: 38c9 813d 59be 75bd feb6 bdbc 8746 29bd
00000250: bfa4 7bbd e159 9c3c ed99 143d 4a8b ce3c
00000260: 2ecc 35bd 1b55 49bd 9f7d 973d 58d9 eabc
00000270: f1d3 873d a044 19bd 7cb1 a8bc a99f 38bd
00000280: 58c7 4a3d f14c 243d 4d0d 11bd 12c6 26bd
00000290: 4747 833d 4fab 45bd bcc4 0ebd eebd 963d
000002a0: 1709 433d faac ebbc 4790 4ebd 03d5 863d
000002b0: 4c79 19bd 3ec9 3dbd 9b66 a6bc 306c 0f3d
000002c0: c9f8 953c 8d8e 1fbd 1245 e1bc 2928 c8bc
000002d0: 432f 553d c608 843c 9d6b bdbb b402 0fbd
000002e0: 5e5f 7a3c f891 6a3d d34f 17bd e6b6 a43c
000002f0: 1ca6 313d 873d e8bc 0198 063d 7562 9f3c
00000300: db56 9b3c e586 6d3d d9f8 81bd f83a 5cbd
00000310: a5bf 8b3c 4c7f 2bbd 4445 18bd afcd 863d
00000320: 86dd 9fbc 8069 78bc 466c 683d e639 f7bc
00000330: 66b3 263d 70e8 993d 0349 39bd 28ae 293d
00000340: f83a a03d ff4b 5f3d fb28 903d 98d0 6cbd
00000350: cddc 703d ea6d 3b3d 9df4 8d3d 2acb 8cbc
00000360: 6ed8 34bd 2ac3 f5bc d68c 0ebd 692c 883c
00000370: cf92 2fbd b5ef f1b9 4f25 813c dc05 71bd
00000380: 931d cebc 6b1c c33b 36b3 073d 3580 9abb
00000390: 3828 b3bc 6066 d1ba 9be7 46bc 8048 ecbc
000003a0: 5882 33bb 0e3e 09bd 4db9 7d3d e0f9 583d
000003b0: 09b2 32bd 4eb5 2fbd efa0 40bd a344 843d
000003c0: 976c 86bc 220c 733d 8193 573d 3e2f 9f3c
000003d0: d27c 693d 44d3 54bd 663a 8e3c b183 943d
000003e0: b4db 2a3d ac59 b5bc e6e4 253c bc02 863d
000003f0: 44d2 1a3d 5a01 83bd 455a 8cbc 2fdf a43c
0.06559079 -0.06498528 -0.00023925754 0.029698685 0.021889536 0.048310395 -0.023314567 -0.015776016
0.026033247 0.06091462 -0.054438263 -0.01163985 -0.028896546 0.06291265 0.036451124 0.040540773
0.012895583 -0.012947077 0.03415291 -0.025009053 0.027701538 -0.013078677 0.025648708 0.018867152
-0.01420078 0.023828777 0.02998943 0.013433554 0.018992221 -0.005833531 0.034199174 -0.02563893
0.078536734 0.030839255 0.051138446 -0.062195543 0.0016211099 -0.03294352 0.07693671 0.029902937
-0.02677441 0.026577845 -0.009586031 0.06886 -0.039906375 0.04159053 0.06232343 -0.0005649105
-0.014442224 -0.046443757 0.060192876 0.060805902 0.010488023 0.03862755 -0.047288086 -0.03191922
-0.067852214 -0.048350736 -0.025426004 0.03242145 0.016458243 -0.0030830842 0.058418743 0.043670744
0.05150329 -0.042896662 0.07168469 -0.030274259 0.04517052 0.006291823 0.06596326 0.009053205
0.035330296 -0.014661568 0.0673733 -0.070145994 -0.007338609 -0.037238568 -0.051121715 0.025442615
0.0523157 0.031252068 0.012814941 0.011640891 0.008412334 0.06951275 -0.06440696 0.048730943
0.022194512 0.018966498 0.021706734 -0.0037918668 0.030063601 -0.0071445247 0.062921666 0.010020262
-0.015155655 -0.06459064 0.03444876 -0.018151013 -0.0124356365 -0.0040524243 -0.04085038 0.023891388
0.02223337 0.032490425 -0.018023618 0.050855946 0.06268737 -0.06745979 0.023114659 -0.054953128
0.007906341 0.03477179 -0.047840886 -0.0077453167 -0.01624101 0.07184788 -0.048484676 -0.040611513
-0.0054869168 -0.014020005 0.0075340453 -0.002129684 0.02773665 -0.012632457 0.057079274 0.010676599
0.03059855 0.04090022 0.06406452 0.080045864 0.053796265 0.07140422 -0.02579663 0.0357614
0.04796918 0.0417409 0.032841843 0.059333365 0.042725455 -0.007700833 -0.052250702 -0.03477957
0.063372076 -0.059995983 -0.023158547 -0.041327026 -0.06143641 0.019085826 0.036279608 0.025212903
-0.044384174 -0.04915343 0.07397007 -0.02866809 0.066322215 -0.03741896 -0.020592444 -0.04507414
0.049506515 0.04011244 -0.035413075 -0.04071624 0.064100794 -0.048259076 -0.03485559 0.07360445
0.04761609 -0.028769005 -0.050430562 0.065835975 -0.037469193 -0.046334498 -0.020312598 0.035015285
0.018307107 -0.038954306 -0.027498756 -0.024433212 0.052047025 0.016117465 -0.005780651 -0.034914687
0.015281526 0.057268113 -0.03694136 0.020106744 0.043371305 -0.028349651 0.032859806 0.019456128
0.018962314 0.057989974 -0.06346292 -0.053767174 0.017059157 -0.041869447 -0.03717543 0.065822
-0.01951481 -0.015161872 0.056743883 -0.030178975 0.04069843 0.07515037 -0.045235645 0.041425854
0.078237474 0.054515835 0.070390664 -0.057816118 0.058804322 0.04575912 0.06931422 -0.01718672
-0.044151716 -0.030000288 -0.03480228 0.016622739 -0.042864617 -0.00046145698 0.01576486 -0.05884348
-0.025160586 0.0059543154 0.033129893 -0.0047149905 -0.021869764 -0.0015975945 -0.01214018 -0.028843164
-0.0027390923 -0.033506446 0.061944295 0.052972674 -0.04362682 -0.042897515 -0.04702848 0.06458404
-0.016409202 0.059337743 0.052630905 0.019431707 0.057003804 -0.05195929 0.01736183 0.07251681
0.04171343 -0.022137485 0.010125374 0.0654349 0.03779818 -0.06396742 -0.017132888 0.020125953
