src/models/model_epoch_lattn_ 0.pth (torch, 672449 bytes, 10 tensors)

localAttentionLayer_user.attention_layer.0.weight f4 [1, 1, 5, 100]
00000000: 7e4e a93c d7c5 e1bc 17e4 b53c 781e 223c
00000010: 49fb ffbc f126 30bd ec4e 1fbd a08a 28bc
00000020: 6d1a 02bd 63f5 d7bc 7190 28bd 676d 99bc
00000030: bcf2 febb a201 89bc 5a53 01bc c758 193c
00000040: d4f1 e83c 1f9b 243b f3bc 713c 880c 27bd
00000050: 75bd ff3c 2cbc 05bd f76a 18bc 972e c4bc
00000060: 1aa0 27bd 6f99 39bd 28bf 88bc 6d4d cfbc
00000070: 7085 d1bc e476 a73c eef9 db3c 3ad7 f43c
00000080: 2564 e33c f6e5 2f39 fbb6 da3c 8c19 f0bc
00000090: 79b9 fd3c 1c4a ebbc 3f58 563b 7575 29bd
000000a0: a1e8 cfbc a1b3 44bd 445f 8dbb 2d9e df3c
000000b0: 818e de3c eb1a 263b 980b edbc 76fd f2bc
000000c0: 0782 e6bc a4e8 0f3d 2c05 14bd 5dfa 93bc
000000d0: 806b cebc 2d8f 1cbd 85e0 1dbd d250 0dbc
000000e0: 69cc 16bd cfa7 02bd 39b6 9e3c 5b3c 0fbd
000000f0: 39a7 313c 584f 17bd 8796 2c3b 828e ecbc
00000100: be56 0dbd 0bfa 943c 0559 37bd a531 ab3b
00000110: b31b 993c d04c 29bd fe50 3cbc f26b babc
00000120: a9ba 47bc eef3 0f3d dda0 25bd 8406 7cbc
00000130: 582a 923b 421f 47bd 037a 713c a8d9 58bc
00000140: 8625 a6bc 19ca 35bd 71bc 623c 8b9c ffbc
00000150: ab6c a1bc ce74 d03c bfc3 ee3c 03f3 adbc
00000160: 0d33 89bc 1487 cdbc c809 123d 2213 febc
00000170: 252a 603c 8abd 1b3c 6f7b 12bd 5317 ad3c
00000180: e768 05bd be3d 90bc bcf4 a63c 9df1 ebbc
00000190: c09b 61bc f65f 133d 14d4 013c 734b 28bd
000001a0: dee6 063d 335b 193d ae8f 853c 6edf e3bb
000001b0: 35c9 2dbd c117 3c3c f883 053d a5aa 243d
000001c0: 6ac3 3a3c 2be6 8cbb 142d ecbc b817 8abc
000001d0: da5a 44bd 0c54 42bd e481 06bd c93c 8ebb
000001e0: 2214 ff3c 9c0d 943b 245a ec3c 577f f73c
000001f0: cee2 2abd 3965 0f3c 402c 273c 453e cc3b
00000200: 6cb1 553c 8d6e 3cbd cb5f 373c 5ae5 eebc
00000210: 6aef 023d 2c9c da3b d2ac 1dbd 9f0b 86bb
00000220: cd52 17bd 64b2 37bd a8d0 ad3c 451c ee3b
00000230: 3f88 183d 9900 32bd 8b6d b53c ca41 853b
00000240: 64f4 0d3d cb0a 34bd 83c8 4a3c 5b0f 063d
00000250: 8108 7fbc ccb8 1cbd 1e71 03bd 948a 3abd
00000260: 4104 1ebd 7dab 89bc 415f 153d e1aa 31bd
00000270: 3ff2 18bd 8e24 eb3c 764e ba3c f5f3 05bd
00000280: a20a e43b f9ff 213d d2f6 45bd 84f3 c53c
00000290: 51cf 60bc 0068 213d db45 8cbc 0368 ffbc
000002a0: 6d26 183d 44c2 103d 855b 8dbb c863 783c
000002b0: a1c1 d8bc 1946 223d 835c fe3c 4371 8d3b
000002c0: 0cea d93b f738 3abd 3391 ffbb 89ee e33b
000002d0: e37c e53c f1ba 18bd ceae c13c 3e96 27bd
000002e0: 0d55 27bd dc4b 993b fc92 44bd 9b32 99bc
000002f0: 5282 1ebd 357e b43c 4902 47bc b9b5 13bc
00000300: 1f56 27bd 74d7 44bc e5b9 84bb 45d0 fcbb
00000310: a21a 45bd e46f 19bc 68aa 36bd 4fe2 a0bc
00000320: 44f2 583b bf01 023b 5f73 9e3b 8773 2c3b
00000330: 551e fdbb 3ebc d5bc c472 26bd 4e5d 1a3d
00000340: 3470 fc3c 685e 473c c80e 46bc 626b 2bbd
00000350: df06 5e3c 0958 ab3c 47d2 123d 5a5c 1f3d
00000360: a933 6fbc a548 24bd 122c 7fbc a189 8a36
00000370: 9c4c fdbc 4ab6 f53c 84ff 203d 9561 19bd
00000380: ab24 e73c ec66 153d 2e18 193d da4d eb3c
00000390: 7444 05bd 722a f23b 02b4 153d d1d0 663b
000003a0: 43b4 cf3c 6c37 b53c d854 de3c 6884 a53c
000003b0: 2738 723c 1efe b93c 17be 533c 19eb 2abd
000003c0: d585 ce3c 4ba1 20bd 93e4 d2bc c510 0cbd
000003d0: 171d bfba 30db e43c 2904 94bc 11f1 313c
000003e0: 2f61 c03c 58fc ba39 5272 cd3c 3682 103d
000003f0: 974e cbbc dbc9 e4bc 70da abbc f02f 9e3c
0.02066731 -0.027560158 0.022203488 0.00989496 -0.031247752 -0.043005887 -0.038893625 -0.010286957
-0.031763483 -0.026362127 -0.041153375 -0.018728925 -0.007780401 -0.016724411 -0.007893408 0.009359545
0.028435625 0.0025116873 0.014754522 -0.040783435 0.03121827 -0.032650158 -0.009302846 -0.023947997
-0.04092417 -0.04531234 -0.016692713 -0.025305474 -0.025576323 0.020442434 0.026852574 0.029887784
0.027757714 0.00016774968 0.02669858 -0.029309057 0.03097223 -0.028721862 0.0032706407 -0.04137178
-0.02537948 -0.04802287 -0.004314335 0.027297104 0.02716756 0.0025345634 -0.028936192 -0.029661875
-0.028138174 0.035133973 -0.036137745 -0.018063718 -0.025197744 -0.03822248 -0.038544197 -0.008625226
-0.036816034 -0.031898316 0.019374 -0.03496967 0.010843092 -0.036940902 0.0026334838 -0.028876547
-0.034506552 0.018185636 -0.04476263 0.005224424 0.018689966 -0.04133302 -0.011493919 -0.02275655
-0.012190499 0.03514474 -0.040436614 -0.015382413 0.004460614 -0.048613794 0.0147385625 -0.013235487
-0.020281564 -0.04438219 0.013838873 -0.031202575 -0.019705137 0.025446322 0.029146073 -0.021234041
-0.016747976 -0.025088824 0.03565386 -0.031014983 0.013681923 0.009505639 -0.035762247 0.021129286
-0.032570746 -0.017607566 0.02038037 -0.028801734 -0.013770044 0.035980187 0.0079240985 -0.04108758
0.032935016 0.03744049 0.016303863 -0.006954125 -0.042428214 0.011480273 0.03259656 0.0402018
0.011399129 -0.004299899 -0.028830089 -0.016857013 -0.047938205 -0.047443435 -0.032838717 -0.0043407422
0.03113753 0.004518224 0.028851576 0.030212088 -0.041720204 0.008752161 0.010203421 0.006233009
0.013042789 -0.046003867 0.011192272 -0.029162098 0.031966604 0.006671449 -0.038494892 -0.004090741
-0.0369442 -0.04484786 0.02121766 0.0072665536 0.03723931 -0.0434576 0.02214696 0.0040666806
0.034656897 -0.043955605 0.012376907 0.032729488 -0.015565992 -0.038262174 -0.0320903 -0.045542315
-0.038578276 -0.016805405 0.036467794 -0.043375853 -0.0373404 0.028703954 0.022742491 -0.03270336
0.0069592753 0.039550755 -0.04833109 0.024163969 -0.013721303 0.039405823 -0.017123153 -0.031177526
0.03714602 0.035341516 -0.0043138885 0.015160508 -0.026459517 0.03961763 0.031049972 0.0043164804
0.006650215 -0.045464482 -0.0077992915 0.006955926 0.028013652 -0.037287656 0.023642924 -0.040914766
-0.040852595 0.0046782326 -0.047991738 -0.018700888 -0.038698502 0.022032836 -0.012146541 -0.009015494
-0.040853616 -0.012014259 -0.0040504807 -0.0077152574 -0.048121102 -0.009365056 -0.044596106 -0.019639162
0.0033103386 0.0019837467 0.0048355306 0.0026313977 -0.007724563 -0.026090737 -0.040636793 0.03768664
0.030815221 0.012168504 -0.012088485 -0.041850455 0.013551443 0.020916002 0.035845067 0.038906433
-0.014599719 -0.04010834 -0.015574472 4.1287426e-06 -0.03092032 0.029994149 0.03930618 -0.037446577
0.028215727 0.036475107 0.037376575 0.028723646 -0.032535985 0.007390314 0.036548622 0.003521968
0.02535451 0.022121154 0.027140066 0.020204738 0.014783896 0.02270418 0.012923739 -0.041728113
0.0252103 -0.03921632 -0.025743758 -0.03419568 -0.0014580813 0.027936548 -0.01806839 0.010860697
0.02348384 0.00035664695 0.025078926 0.03528043 -0.024817748 -0.027928283 -0.020978183 0.019309968

localAttentionLayer_user.cnn.0.weight f4 [200, 1, 1, 100]
00000000: 9de2 a9bd 6716 0e3d 7403 e9bc d357 323d
00000010: 4c92 31bd fec6 6dbd c66d 403d dd15 90bd
00000020: 4fda a53d adba 4e3c 9787 9cbc adb8 09bd
00000030: 52d0 c23c db82 a43d f44a a53d 113e 0ebd
00000040: 987a 383b e2bb b93d 9b38 8a3d fa4e 843c
00000050: c744 9b3b 91c3 88bd a10c 15bd b498 5b3c
00000060: 82da 7abd 8aee 2dbd ebda 68bd f7dc 933d
00000070: f232 d73d 1259 05bc ae02 873d 5f2a 8fbd
00000080: b470 f0bc f40f acbd 8991 a9bd 6119 d33d
00000090: e8a9 7cbc 7921 a33d 243f 24bd 9f30 f93c
000000a0: cac2 48bd 09b7 bbbd 5bdd 2dbd 62af c43c
000000b0: b9fb bbbd d77a a13d 9765 f43c 34d8 a6bd
000000c0: 216b c63d 16a6 ecbc 56c3 87bd a6d6 8fbc
000000d0: 748d 5dbd aa55 5e3d ae5d 013b 42fa 06bd
000000e0: 72be 96bd 2d4a 903c 164d 793d 7df3 cabb
000000f0: bba6 9a3d 4f7c 5d3d 723e 143d 9f4c 373c
00000100: f0ff be3c 8eb1 65bd 065c 6bbd 5344 b4bd
00000110: 7fb6 353d 0d57 223c d97c 50bd e2d3 aa3d
00000120: 3d0b 033d ecca 90bb 166d 6b3c 8d31 523d
00000130: 4c6c 9a3c 37b8 7f3b 2199 a7bd 7646 04bd
00000140: d193 7a3d 925b ccbb 7d21 8a3d 5894 94bd
00000150: 13f2 7f3d 8c1f 07bd 68ee a4bd f228 8d3d
00000160: 7d6e ff3c 6301 e53c 52a1 d73d 96a4 a1bd
00000170: 1f1b d93d d55f 513c c632 51bb 85b4 bf3d
00000180: 1435 b7bd 0064 2f3c c5f5 b13b 4a55 673c
00000190: 1f93 73bc 07b6 1a3c ae17 233d 526f 283d
000001a0: 37e2 d4bc b7d3 6f3c cc13 b13d fd73 803d
000001b0: a877 bd3d f994 ad3d 3e80 ad3d 55d6 5c3d
000001c0: a99b c33d 38fa cd3d 9d1d a8bc 34fe d4bc
000001d0: 093b 863d ba6f bc3d 11e0 913d 14f7 04bb
000001e0: 58c5 2fbc 8bf2 973c ac6e 973d aeda a33d
000001f0: fbd4 933d 5124 ac3d cc66 04bd 35e1 6bbb
00000200: 2763 cd3c a318 b5bd a129 44bd 6cdd 86bd
00000210: 6cc5 b03c 202a 9c3d 28a7 363c deb9 babd
00000220: 2453 7bbd 9498 c73d 1d62 843d 8bab 31bb
00000230: 891b 3fbc 75de 9b3d 62cc 9ebd abad 7a3d
00000240: 2cb8 333d 8136 cf3c 7f56 88bd 8cf1 81bb
00000250: 6d31 313c feec b03d 4283 563d d5bb b8bd
00000260: bb00 1fbc 4323 babd 0ff1 b53d 61a7 9e3d
00000270: a0aa d83d f1b7 a63d ac2f 963d 49a6 da3c
00000280: 5add d53d fbc8 ca3d 040d 2a3d b921 363d
00000290: 3de6 653d ddf8 8cbd a7c4 70bd 0105 893d
000002a0: c3a6 a53d ccfc 533d 7de0 36bc 6e6a 34bd
000002b0: 8808 b43d 4a36 71bd 53e5 213d 0bb2 903d
000002c0: daab 29bc c577 0d3d 2abf 15bd 23b9 44bd
000002d0: b20b 8b3d c4c0 63bc 1455 1ebd fcb0 8cbd
000002e0: 122d 203d 0729 30bd 9a0c 8f3d e273 a7bd
000002f0: 8139 d73d e531 803d d45d e63a a703 dc3c
00000300: 21ca d03d cef9 87bd e02b 09bc 9425 a53d
00000310: 3b99 94bc e3fa 3f3d 537c 13bd b94b 8e3c
00000320: e298 533d 3e23 9c3d 9660 8ebd 81bd 9dbd
00000330: 80f6 bdbd 33fa f3bc d92e cbbd be77 223d
00000340: f53e 7bbd d2e2 e13c 6b37 6e3d 8fc0 8abd
00000350: 3800 febc 271e b53d 06cd a2bd ec98 45bd
00000360: df00 6cbd a87e 82bd ae81 bebc 0493 88bd
00000370: 85ca 9e3d 7029 c3bd 2821 b8bd 1918 733c
00000380: dd8d 03bd d2d2 8b3d be77 96bd 69b4 98bd
00000390: 8802 513d 83b8 dcbb 99e3 183c a6cb 353d
000003a0: 2b23 343d a256 be3d 34c7 5abd d023 5bba
000003b0: fb36 8e3d fb74 b1bd 860f 97bd 8371 78bd
000003c0: 7d22 873d 6322 94bd bfbe b7bc 6f5b 843d
000003d0: 6f21 a93d bd39 ba3d e57a c3bd a9d1 9bbd
000003e0: d10f ecbc c950 593d febb 1e3d 5692 bd3c
000003f0: 1f24 b03b 6cab 87bd dd9b 373d da5b b0bd
-0.08295176 0.034689333 -0.02844403 0.043540787 -0.04335241 -0.058051102 0.046979688 -0.0703542
0.0809828 0.012617749 -0.019107623 -0.033623386 0.023780975 0.08032771 0.08070937 -0.03472716
0.0028149243 0.09069039 0.06749078 0.01615094 0.0047384235 -0.06677926 -0.036388997 0.0134031065
-0.06124354 -0.042463817 -0.0568494 0.0721988 0.10507764 -0.008138912 0.06592308 -0.069905035
-0.029350616 -0.0840148 -0.08279712 0.10307575 -0.015421368 0.07965369 -0.040099278 0.030418692
-0.04901389 -0.091657706 -0.04244743 0.02400941 -0.09178872 0.07884758 0.029833598 -0.08146706
0.09688402 -0.02888779 -0.06629054 -0.017558407 -0.05408998 0.054280914 0.0019739675 -0.03295351
-0.07360543 0.017613495 0.06086453 -0.006193577 0.075513326 0.054073628 0.036192365 0.0111877015
0.0233154 -0.056077532 -0.057460807 -0.08802094 0.044363495 0.00990845 -0.050900314 0.08341195
0.03199314 -0.0044187214 0.01436927 0.051316787 0.018850468 0.0039019713 -0.08183504 -0.03229376
0.061176125 -0.006236502 0.06744669 -0.07254857 0.06248672 -0.03298907 -0.08053285 0.06892575
0.031180615 0.027954763 0.10528816 -0.078927204 0.10600876 0.012779196 -0.0031921132 0.09360603
-0.08945671 0.010704994 0.0054309093 0.014119456 -0.014866619 0.009442813 0.039817505 0.04112179
-0.025986774 0.014637879 0.08646354 0.06272123 0.09251338 0.0847568 0.08471726 0.05391534
0.09551174 0.10057491 -0.020521933 -0.02600012 0.06554229 0.09200998 0.071228154 -0.0020288872
-0.010728203 0.01854827 0.07394156 0.08000694 0.07218357 0.08405364 -0.032324597 -0.0035992388
0.025071694 -0.0884259 -0.047891263 -0.065852016 0.021578513 0.07625222 0.011148252 -0.091174826
-0.061358586 0.09745899 0.06464026 -0.0027110304 -0.01166428 0.0761079 -0.07753827 0.06120078
0.04387681 0.025294544 -0.06657123 -0.003965562 0.010815007 0.08638953 0.05237127 -0.09020201
-0.009704764 -0.09088757 0.08883869 0.07746769 0.10579419 0.08140553 0.073333114 0.026690619
0.1044261 0.09901615 0.04151632 0.044465754 0.056127775 -0.068834044 -0.058781292 0.066904075
0.08088448 0.051754758 -0.011161921 -0.04404681 0.0879069 -0.058889665 0.03952534 0.07065209
-0.010355914 0.03453805 -0.03655926 -0.048028123 0.0678934 -0.013900939 -0.038655356 -0.068696946
0.039105482 -0.043007877 0.069848254 -0.081764 0.10509015 0.062595166 0.001757557 0.02685721
0.10194803 -0.06639443 -0.008372277 0.08063808 -0.018139472 0.046870124 -0.036007237 0.017370092
0.051659472 0.076239094 -0.06952016 -0.077021606 -0.09275532 -0.02978239 -0.09921045 0.039664976
-0.061339337 0.027573977 0.05815832 -0.06775009 -0.031005964 0.08843642 -0.07949261 -0.04824154
-0.05761802 -0.06371814 -0.023255195 -0.06668666 0.07753471 -0.09529388 -0.08990699 0.014837288
-0.032117713 0.0682732 -0.07347058 -0.074562855 0.051027805 -0.0067358627 0.009331607 0.044383667
0.04397885 0.09293868 -0.05341263 -0.00083595235 0.069440804 -0.086648904 -0.07376008 -0.06065513
0.06598375 -0.07233121 -0.022429822 0.06462752 0.0825833 0.09093044 -0.09544925 -0.07608349
-0.028816136 0.05305556 0.038753502 0.023141067 0.0053753997 -0.06624493 0.044826377 -0.08611269

localAttentionLayer_user.cnn.0.bias f4 [200]
00000000: 969e abbd e209 533c b3c9 16bd e1ae 953c
00000010: 0729 3dbb b3e8 cb3d ce92 b5bd 55ec ae3d
00000020: 04de acbd 5f8d 9d3d 959c 903d 13ca 20bd
00000030: 61fb c83d 1b4d 9abd 8d5f 073d be0e 973d
00000040: f63b 57bd 7596 f83c 87f6 fdbc d73e 82bd
00000050: daff 87bd 5739 96bd 5653 6bbd b99c bbbd
00000060: 6ace b53d f238 d33b 8337 56bd ef72 883c
00000070: 7796 153d 7347 c7bd 211f b43d fbf9 833d
00000080: da17 853d 23b0 90bd 1b70 56bc cf81 e43b
00000090: 07af 9fbd d85f 9fbd 1e6b 2ebd f7c9 bf3d
000000a0: f541 09bc 70df 92bb 5d07 a4bc ba3c d1bc
000000b0: deb1 0ebd 24ef 39bc ae14 903c 4879 afbd
000000c0: 3f00 27bc 0641 583d a49e ffbc 53df 74bc
000000d0: 2a52 033c 396c 713c 76a1 39bd f756 8a3c
000000e0: 1280 b3bd f433 063d 2d43 1a3d dbf0 843d
000000f0: f877 5d3d ab9b 2c3d 889e c0bd 0ded 933c
00000100: e300 c7bd fda2 033d fa58 febc 9eba f0bc
00000110: 4734 123d 2d29 973d 4eec 023c bc92 113d
00000120: ac09 0cbd 7f3b 4b3b b59b 4d3d 48b1 a53d
00000130: bed6 9ebd f0ef cfbc 641e 5bbd abca abbd
00000140: a6a6 4bbd df00 ae3d 852f 303d a40d 9a3c
00000150: dd1e 023d 90c4 823d f066 193d 4637 72bc
00000160: fe7c 353d bdb0 a83d 7fe8 39bd 68ce f93c
00000170: 2c2d 65bd e84a 7abd 30e5 df3b 6e1a 5c3c
00000180: cdcd 223c 4e3d 21bb f165 b9bd 51ca f53c
00000190: c2e5 ee3c 1848 acbc ce85 3a3b d6c3 b4bd
000001a0: 4aba ecbb 70b1 3a3c 25fc 8c3c 6843 113d
000001b0: cac0 b1bd f5b4 59bc c256 0dbd a76a 3a3d
000001c0: df88 813d 3f80 203d aa9d bc3d 5ac2 bbbd
000001d0: 4aa6 c8bd bbc9 60bd 1d51 0fbc 4c02 82bd
000001e0: dcc9 76bd b61c 9ebd 0c01 2c3d 25f5 9bbd
000001f0: 3661 a0bd 457d b93d 5b2a 943d f0ee b33d
00000200: 23a7 893d 640b bb3d d719 36bc 916d a9bd
00000210: 1d0c b93c d19b a5bd 6806 d1bd 0e04 843d
00000220: 88ef bf3d 118c babd 4243 813d bf61 21bd
00000230: 9c7e 993d 6d19 fabc cb23 753d d304 b4bd
00000240: 6ab1 e6bc a681 bfbd df97 5bbd 832d a5bd
00000250: cd13 40bc d0c7 05bc f9a5 b8bd 9d6d 36bd
00000260: 0f5e d13d 7177 92bd 1dbe b53c 59f1 11bd
00000270: a0ba 813c 622d 75bd 0614 63bc 623f ed3c
00000280: df22 963d 4407 58bc 976d c23c 26bc d73c
00000290: 43b6 57bc 9c83 b5bd f768 383d 8d02 b93d
000002a0: 99de 763d d352 27bd 6d48 3abd bf48 9e3d
000002b0: 6376 b7bd d9ea 77bc a1e8 9f3d b782 953d
000002c0: af4f 87bc 98dd 933d e8c2 bd3d 9144 02bb
000002d0: c10c cebb 8cae b4bd 4772 6e3d 6bdc 59bd
000002e0: 20a1 2a3d f874 f6bb 1879 8e3d 2778 ad3d
000002f0: f06b 9e3d be74 a83d 2fa8 94bd 9e8d 8cbc
00000300: 852f 6bb9 8c06 b13d 4e18 27bd a445 3abc
00000310: a073 acbd 3acc a03d c1b3 a23d fb83 50bd
-0.08379857 0.012880774 -0.03681345 0.018271865 -0.0028863566 0.09956493 -0.088658914 0.085411705
-0.084407836 0.0769298 0.07061116 -0.039255213 0.09813572 -0.07534238 0.03305011 0.07375859
-0.052547418 0.030345181 -0.031001342 -0.06359642 -0.06640597 -0.073351555 -0.057452522 -0.09160752
0.08877261 0.0064459974 -0.052299034 0.016656367 0.036520448 -0.09730425 0.08795 0.06444164
0.0649869 -0.070648454 -0.013088251 0.006973482 -0.07797056 -0.077819526 -0.042582624 0.093646936
-0.008377542 -0.004482202 -0.020023042 -0.025541652 -0.034837596 -0.0113485195 0.017587986 -0.085680544
-0.01019293 0.052796386 -0.031203575 -0.014945823 0.008015195 0.014735275 -0.045319997 0.016887171
-0.08764662 0.03276439 0.03766172 0.06491252 0.05406949 0.042140644 -0.094052374 0.01805737
-0.09716966 0.03213786 -0.031048287 -0.029385861 0.035694387 0.073809005 0.00799091 0.035540327
-0.03418891 0.0031010804 0.050197322 0.08090454 -0.077558026 -0.025382966 -0.05349578 -0.08388265
-0.049719475 0.0849626 0.04301407 0.018805332 0.031767715 0.063851476 0.037451684 -0.014783686
0.044308655 0.08236835 -0.04538774 0.03049393 -0.055951282 -0.061106592 0.006832741 0.013434036
0.009936762 -0.002460319 -0.09052647 0.030003699 0.029162291 -0.02103047 0.0028461101 -0.08826415
-0.007224356 0.011394843 0.017210076 0.035464674 -0.0867935 -0.013287772 -0.034506567 0.045511868
0.06324934 0.039184805 0.092097595 -0.09167929 -0.09797342 -0.054879885 -0.008747366 -0.06348094
-0.0602511 -0.0772032 0.041993186 -0.07615117 -0.078310415 0.090570964 0.07234641 0.08785808
0.06721332 0.09133032 -0.011114559 -0.08272851 0.022588784 -0.0808636 -0.102063 0.06446086
0.09371859 -0.09108747 0.063116565 -0.03939986 0.07494852 -0.030529702 0.059848588 -0.08789983
-0.02816077 -0.093509 -0.053611632 -0.08065321 -0.011723471 -0.008165315 -0.09016032 -0.04453813
0.102230184 -0.07151688 0.02218538 -0.035630558 0.01583606 -0.059857734 -0.013859754 0.028960887
0.0733087 -0.013185326 0.023733897 0.026334833 -0.013166013 -0.08862993 0.045021977 0.0903369
0.06027088 -0.04085047 -0.045479227 0.07728719 -0.08958127 -0.015131676 0.07808042 0.073003225
-0.016517488 0.0722 0.09265691 -0.0019877295 -0.0062881415 -0.08822355 0.058214452 -0.053188723
0.041657567 -0.007521268 0.069566905 0.08470183 0.07735431 0.08225392 -0.07258641 -0.017157372
-0.00022429049 0.08643827 -0.040794663 -0.011369143 -0.08420491 0.07851453 0.079444416 -0.050907116

localAttentionLayer_item.attention_layer.0.weight f4 [1, 1, 5, 100]
00000000: a95f d8bc c4ae f9bc b934 c03c 8eb0 343d
00000010: 5d4b 333d 6d84 2abc 0ec8 b93b d552 d53b
00000020: a2c0 343c da9d c8bc 60d7 943c 3727 133d
00000030: 89ec c8bc cceb ef3c f8f3 00bc 99fb 3ab9
00000040: b855 f1bc 66c5 3e3c a817 c3bc dfba a03c
00000050: b664 94bc 69be 91bc a640 25bc 45c9 733c
00000060: 5d4b 6f3b 3b59 aa3c 8d33 81bc 638f f83b
00000070: 7ae8 40bc ed54 173d 2907 81bc 2432 02bd
00000080: 9cc1 cdbb d10e abbc 0414 f4bc 1d18 053c
00000090: 1798 9b3c 76c0 b73c 9126 6ebc 77f1 bb3c
000000a0: 6d10 8a3c a20f 26bd 435c f23c b087 26bd
000000b0: b857 183d bd29 f43c 7723 ccbc 432d b43c
000000c0: 5f90 793c db0d 133d 1645 833c 9348 353d
000000d0: 9e9e 313d 8344 143d 6e33 463c a599 2c3d
000000e0: 7f76 b93c 4116 533c e152 7cbc bfd5 ac3c
000000f0: 1a7d 14bd a41c 84bc dc68 c63c 3694 9f3c
00000100: 94c4 a3bc 4dcb 61bb af02 d63b b8dc 0fbd
00000110: 1085 8abc b297 1a3d a063 00bd 39d3 d7bc
00000120: b2d6 89bc 3774 27bd 0e7e a33c 2ec5 e5bc
00000130: 39da dfbc 8968 cb3a 8c2f fd3b 835f 1d3c
00000140: 0208 70bc 92aa 0f3b bb2d 233d a01f 0d3d
00000150: 7a82 07bd 247f 0ebb 8738 113c e91b dbbc
00000160: cb31 33bd 45ea d93c f1df ec3c a36f 053c
00000170: 9429 3bbc ba1d 973c 1792 e53b 3150 8f3b
00000180: a32d 033d 8420 0e3d 21f7 3c3c d023 d4ba
00000190: 17b0 c53c 643e 07bd 4a7a 45bc d5d5 0f3c
000001a0: d278 09bd bc9e ebbb 6d86 383d 91e1 04bd
000001b0: 330f 02bb c8a4 013d 7bcb edbb 84fe 5fbc
000001c0: ca97 263c 3909 1e3d bdc3 093c 8626 e0bc
000001d0: cc2e 14bd 6d79 69bb 0528 9ebb 8374 9e3c
000001e0: 0b47 033c 2af9 22bd 97df d33c cad8 243d
000001f0: d178 343d d5fe 2a3d 8534 323d ccfd 903c
00000200: 758c 23bd 9cd7 c7bc 4795 193d 3e8b 793a
00000210: 1055 e93c 03b6 2d3d 993c 07bc c226 fd3c
00000220: f9a1 b1bc 9f1a 3c3d c0da 4abc 12ea 223d
00000230: 5c4e 323c 8217 9cbc 17a8 d6bb 5523 2ebd
00000240: fb69 173d 43c4 c2bb 4098 01bd 8fa7 01bd
00000250: e01c 30bd 4c86 ecbc 7a03 973c 0e9c 353d
00000260: a0c8 123d 2a63 923c ab87 193d 3e01 b0bc
00000270: c538 293d ee56 16bd 944b 1bbd c21e b6ba
00000280: 7fde a03c 4d58 cbbc 647d 1cbd b165 04bd
00000290: e6fd 2d3d aad4 b5bc 0619 32bd 2356 c0bb
000002a0: db68 543c 42a2 1fbd d2c5 c53c 561f bc3b
000002b0: 39cd 233d faae 2f3c 0341 a93c 4d40 bbbb
000002c0: 7cf4 da3c 16f8 3d3c ab2d 973c d77d 22bc
000002d0: d7d2 a33c 4c73 e4bc bb0f de3c 8bc5 2abc
000002e0: c47a a33c 9202 073d 7faa 293c 9a19 f23c
000002f0: 19da 2fbd feb7 053d 99f0 213d f7a2 303d
00000300: fbec 113d 659e deba 97c0 bebc 39ab 24bd
00000310: 3532 823b 233a a73c cf92 123c 41f9 cb3b
00000320: 3423 9d3c d3d7 2abc 9e4d 893c 6f75 6dbc
00000330: 9a1f 26bd 7d8f d8bc 1db0 eebc 1cdc 2cbd
00000340: 6c5d b93c 2612 b63c 0bc0 f93c 0962 5dbb
00000350: a13e 10bd e644 003d 6db1 94bc 3581 803c
00000360: d838 0e3c c447 44bc 4fb3 97bc e2e3 28bd
00000370: 33cb 31bd 7c53 fdbb 7836 243c 1fbf 60bc
00000380: 3db9 eb3b be54 1b3d cd6b cebc 9e0e 073d
00000390: 29d1 c9bc 5c68 1abd 473f b23c 7b26 12bc
000003a0: 85c6 6c3c b797 1bbd d604 c9bc 748e da3c
000003b0: 23aa 243d 110b 253d eb08 c53c fc0e 123d
000003c0: 3cde 10bc add3 42bc 582d 613c cc42 debc
000003d0: 3c26 123d 2246 023a 2c11 18bc 16ee c4bc
000003e0: 01a1 533c 1c7a b23c de1c f7bc 376d a4bc
000003f0: 4608 e0bc 6c2d 31bd 24e1 ce3a a5e5 f9bb
-0.026412802 -0.030478843 0.02346264 0.04411369 0.043773044 -0.010407549 0.0056696003 0.0065101185
0.011032255 -0.024489332 0.018169105 0.03592607 -0.024526851 0.029287241 -0.007870667 -0.0001783207
-0.02945982 0.011643743 -0.023814991 0.019620357 -0.018114429 -0.01779099 -0.010086214 0.014879529
0.0036513426 0.020794502 -0.015771652 0.0075854524 -0.011774177 0.036946226 -0.015750485 -0.0317861
-0.0062791836 -0.020881088 -0.0297947 0.008123425 0.01899342 0.02243064 -0.014535562 0.022942288
0.016853536 -0.040542252 0.02958501 -0.040656745 0.03719303 0.029805059 -0.024919255 0.021994239
0.015232175 0.035901885 0.016024154 0.044258665 0.04336416 0.03619815 0.012097223 0.042138714
0.022639511 0.012883724 -0.015400619 0.021098016 -0.03625212 -0.016126938 0.024219923 0.019479852
-0.019991197 -0.0034453452 0.0065310816 -0.035122603 -0.016909152 0.037742324 -0.03134501 -0.026345836
-0.016826008 -0.040882315 0.019957568 -0.028048124 -0.027325736 0.0015518825 0.0077266153 0.009605291
-0.014650347 0.0021921736 0.039838534 0.034453988 -0.033083417 -0.0021743262 0.008863575 -0.026746707
-0.04374866 0.026600966 0.028915377 0.008144292 -0.011423487 0.018446792 0.0070059407 0.004373573
0.032025944 0.034698978 0.0115335295 -0.0016184989 0.024131818 -0.033018485 -0.012053082 0.008779009
-0.03356249 -0.0071905535 0.045050073 -0.03244168 -0.0019845485 0.03165129 -0.007256923 -0.013671521
0.010168025 0.038583014 0.008408484 -0.02736212 -0.03617744 -0.0035625354 -0.004826548 0.019342666
0.008012543 -0.039788403 0.025863452 0.04024581 0.044060532 0.041746933 0.043507118 0.017699145
-0.039928872 -0.024394803 0.037495878 0.0009519345 0.028482944 0.042409908 -0.008254194 0.03090227
-0.02168368 0.045923825 -0.012381256 0.039774008 0.01088294 -0.019054178 -0.0065507996 -0.042514164
0.036966305 -0.0059438064 -0.031639338 -0.031653937 -0.042996287 -0.028872631 0.018434275 0.04433828
0.035835862 0.01786955 0.0374829 -0.021484967 0.041313905 -0.036703996 -0.037913874 -0.0013894665
0.019637344 -0.024822379 -0.03820552 -0.032323543 0.042478465 -0.022196133 -0.043480895 -0.0058696433
0.012964453 -0.0389731 0.02414218 0.00574104 0.039990637 0.01072287 0.020660883 -0.0057144524
0.026727907 0.011594793 0.018454393 -0.009917698 0.019997997 -0.02788701 0.02710711 -0.0104230745
0.019956 0.032961436 0.010355591 0.029553223 -0.042932604 0.03264617 0.039536092 0.043124165
0.035626393 -0.0016984461 -0.023285193 -0.040202353 0.0039732703 0.020413464 0.008946135 0.0062247817
0.019181825 -0.010427433 0.016760644 -0.01449333 -0.04055748 -0.026435608 -0.029136712 -0.0422021
0.022627555 0.02222545 0.030487081 -0.0033780357 -0.035215978 0.031315707 -0.01815101 0.01568661
0.008680545 -0.011980001 -0.018518118 -0.04123295 -0.043406677 -0.0077308994 0.010022752 -0.013717442
0.007193713 0.037922613 -0.025197888 0.032972924 -0.024635868 -0.03769718 0.021758689 -0.008920307
0.014451628 -0.037986483 -0.024538439 0.026679255 0.040201318 0.040293757 0.024052104 0.03565882
-0.008842047 -0.011891288 0.013743721 -0.02713146 0.035680994 0.0004969557 -0.009281438 -0.02403931
0.012916804 0.021786742 -0.030165132 -0.020071609 -0.027347695 -0.04325621 0.001578365 -0.0076262527

localAttentionLayer_item.cnn.0.weight f4 [200, 1, 1, 100]
00000000: 2e48 393d c040 72bc 43bc fdbc 88b1 6c3c
00000010: 9ebe 2bbd 4f0f af3d 3541 f53b 3318 923d
00000020: 0496 593d e9bd c1bc cc5b bdbc b404 343c
00000030: 8fc9 083d 49e8 a83d 69e5 c93d 5c63 acbd
00000040: 7f1e 85bd 96ab 28bc fc44 1abd 8033 a1bd
00000050: 1b57 803d a732 943c 9135 6cbd 67ca b93b
00000060: b0a0 4a3d 87b5 a7bd c1f3 98bc 2fce b93d
00000070: 3a5d 8f3d 13b0 77bd 7b9f 5abc 1bc5 89bd
00000080: 3a03 903d faec 2abd 5da8 d2bc 3de6 653d
00000090: 5aea 09bd 3d56 c73d 254f 60bd 9981 b1bd
000000a0: 2cbf 82bb c4ff b9bd 2484 aebc 38f8 9d3d
000000b0: 0ff8 2cbd a38d 32bd a110 b83d f839 b9bd
000000c0: 4bfa a5bd 775f 22bb 1715 afbb 893f 20bd
000000d0: 8e6c ba3d 9111 113d d4a6 59bc ba41 bc3c
000000e0: ff9d 543d d588 b43d 0256 7fbd 2683 a9bd
000000f0: 98f3 0f3d 64f2 fd3b ba45 e8bc 2f15 713d
00000100: e38d b9bc b913 533c da62 55bd aaf9 363c
00000110: 09a5 143d 0e73 e03c 6085 80bc d659 a5bd
00000120: 971c 223d f619 e23b 3a22 573d a924 423c
00000130: 313b 9dbd e51f c0bd cf10 a6bd ff89 72bd
00000140: 5d29 a93c 84c2 fbbb 18f0 9d3d cfd9 98bd
00000150: d1a1 6f3d 35b3 58bd afd9 bb3c 84e9 853d
00000160: c035 bb3d 2022 d4bc 5d60 613d ffc0 b63c
00000170: b144 7b3d b91d a0bc 939e 463d 3b88 0abd
00000180: 2e2d b2bd eb65 f6ba 9c1c 9e3c 7292 9dbd
00000190: b8a1 c63d 56f1 a6bd a120 593d b83a c93d
000001a0: 5c01 b9bd 0422 973d 447e 893d 7f4b 303d
000001b0: f851 91bd af61 43bd 16e1 9d3d 0831 e93b
000001c0: 5ffc d53d 7a86 9dbd 21e3 0abd 954d 823d
000001d0: 6c6c aebc c0e2 b0bd e28a 7e3d 63c8 853c
000001e0: bf69 cd3c 1e15 dc3c f3e4 a13d 0e9e c73d
000001f0: c823 403d 1195 553c 37e2 9f3d 4550 28bd
00000200: 71fd 843d 9136 f73c b3bc 8ebd 7339 a33d
00000210: 8bec a3bd 6dda a43d 9c63 c63d 183e 823d
00000220: 6d06 d73d 4d36 98bc 84e1 33bd a98f 39bd
00000230: c1c2 dc3b bece 14bc c84e 11bd dba6 0cbd
00000240: 0662 873d b962 03bd 49e0 afbc d22e d73d
00000250: d5b9 6c3d ad14 b33d 7eec 52bd 43ef b5bd
00000260: 6bf4 513d 3caf 85bd ed80 763d d135 93bd
00000270: 9995 c93c daaa 4cbd 678a c1bc 64f7 e03c
00000280: b430 f33c 15d5 b9bc 950a 8c3d bc13 013d
00000290: 3584 673d 0518 823d 14bb 343d 0b62 d73d
000002a0: 1460 b8bd d761 523d 4b6d b7bd cb12 ea3c
000002b0: 77eb 563d dedb 453d 0fda 0f3d 5309 82bd
000002c0: 397e 9abc e0ac 653d 98f9 8b3d e739 923d
000002d0: 67d4 c63d 2e01 a8bd 4629 8dbd 5e59 34bd
000002e0: 9535 1b3d fa2c 9e3c 299f cf3d a5a4 ce3c
000002f0: 83cb 3bbd 7ea9 cb3d 0245 06bb 9e90 f0bb
00000300: bb0c 183d e742 e1bc de29 71bd a0bc d63d
00000310: f1d9 823d 0a04 01bd 18ab 20bd 3790 4abd
00000320: b69b 5a3d 28ef 8d3d c6e7 ad3d 46fb 423d
00000330: d4be 85bb 91ec f23c b5b7 f5bc 563c a23d
00000340: a7f9 8dbc 7f21 59bd 4f18 27bd f9be 943d
00000350: e88b 5d3d d76c 713c a739 613d f787 51bd
00000360: 3625 c1bd 8282 b8bd 94e4 503b e165 35bd
00000370: 938e eabc 4959 af3c 578e b1bd b405 94bd
00000380: b810 d0bd b228 4d3c 7929 023d c6e4 333d
00000390: f31c 3a3d 113e 8fbd 3c7e bc3d c872 9fba
000003a0: 710f 5a3d 2628 af3c e881 74bd a918 8bbd
000003b0: 742d b2bd a025 27bd 293c 6e3b fa7e bd3c
000003c0: cdc7 3dbb 5f76 1f3c 9132 603b e087 a0bd
000003d0: 1e7e b2bd 5dd3 613d 04f2 a83c d3af a0ba
000003e0: 0a68 e4bc f4e3 62bd 78e1 02bb 3dc8 d9bc
000003f0: e29c a03c 89fb d13c bffa 48bd 3925 0d3d
0.04523485 -0.014785945 -0.03097356 0.014446624 -0.041929834 0.08547842 0.00748458 0.07133522
0.05312158 -0.023650127 -0.023115061 0.010987449 0.033395346 0.0824743 0.0985821 -0.08417389
-0.06499957 -0.0102948155 -0.037663445 -0.07871151 0.06266614 0.01809056 -0.057668272 0.00566988
0.04946965 -0.081889205 -0.018670918 0.090725295 0.070002034 -0.06047065 -0.013343687 -0.06727048
0.070318654 -0.041729905 -0.025715047 0.056127775 -0.03367076 0.097332455 -0.054762978 -0.08667297
-0.0039900746 -0.090819865 -0.021303244 0.077133596 -0.042228755 -0.043592107 0.08987547 -0.0904426
-0.0810438 -0.002477614 -0.0053430903 -0.03912309 0.091027364 0.035417143 -0.013284404 0.02298056
0.05190849 0.08815161 -0.062337883 -0.08276968 0.03514442 0.0077498425 -0.02835356 0.058858093
-0.022650665 0.01288312 -0.052096225 0.011167923 0.036290202 0.027398612 -0.015688598 -0.080737755
0.039578047 0.0069000674 0.052522875 0.011849561 -0.076773055 -0.093810834 -0.08108675 -0.059213635
0.020649606 -0.0076831 0.0771181 -0.07463419 0.05850393 -0.05290528 0.022930948 0.0653868
0.091411114 -0.025895178 0.05502354 0.022308825 0.061344806 -0.019545423 0.048491072 -0.033821326
-0.087000236 -0.0018798684 0.019300751 -0.07693948 0.09698814 -0.081515 0.053009633 0.09825653
-0.090334624 0.07379535 0.067135364 0.04304075 -0.070957124 -0.04770058 0.07708947 0.0071164407
0.104485266 -0.07691665 -0.033908013 0.06362454 -0.021291934 -0.08636999 0.062144168 0.016330903
0.025074838 0.026865538 0.07904997 0.097469434 0.046909124 0.0130360285 0.07806819 -0.041092176
0.064936526 0.030177386 -0.06969585 0.07969942 -0.08004101 0.08049474 0.09686968 0.063595
0.104992725 -0.01858058 -0.04391624 -0.04530302 0.0067370837 -0.009082494 -0.035475522 -0.034338813
0.06610493 -0.03207657 -0.021469252 0.10506977 0.05779441 0.08744178 -0.051495068 -0.08883526
0.051258486 -0.06527564 0.060181547 -0.07187999 0.024607467 -0.049967624 -0.023625566 0.027461715
0.02968631 -0.022684613 0.06837956 0.03151296 0.056522567 0.063522376 0.044123724 0.10516747
-0.090027004 0.05136284 -0.08956393 0.028573414 0.05247065 0.048305385 0.035120066 -0.06349435
-0.018859016 0.05607307 0.068347156 0.0713995 0.09708481 -0.0820335 -0.06892638 -0.04403054
0.037892897 0.019308556 0.10137779 0.025224993 -0.04584838 0.099444374 -0.002048791 -0.0073414585
0.037121516 -0.027497722 -0.05887782 0.10485196 0.06389225 -0.031497993 -0.039225668 -0.04945394
0.053371154 0.06930381 0.08491473 0.047602914 -0.0040815864 0.02965382 -0.029994825 0.079216644
-0.017330958 -0.05301046 -0.040794667 0.07262988 0.054088503 0.014735422 0.054986622 -0.051155057
-0.094309255 -0.090092674 0.0031874524 -0.044286612 -0.028632438 0.02140488 -0.08669727 -0.0722765
-0.10159439 0.01252191 0.031777833 0.043919347 0.045437764 -0.0699426 0.09203765 -0.0012164945
0.053237382 0.021381449 -0.0596942 -0.06791813 -0.08700076 -0.040807366 0.0036351776 0.023131836
-0.0028958202 0.009732812 0.0034209827 -0.07838416 -0.08715461 0.055133212 0.020623215 -0.0012259431
-0.027881641 -0.055393174 -0.0019970816 -0.026584739 0.019606058 0.025632637 -0.049067255 0.034459326

localAttentionLayer_item.cnn.0.bias f4 [200]
00000000: 42b3 9ebd fa50 803d febc 8d3d e9f9 ab3d
00000010: 7ee6 33bc 1e03 083c 8fca a7bd e1d2 f23c
00000020: 6aeb 7f3d 358c 893d 7022 2e3d fdf7 933d
00000030: b5f4 5f3d 39fc 5137 a373 ab3d c7fb 6a3d
00000040: 142d b2bd 78ea bcbc 8288 7d3d a569 e63b
00000050: fb66 69bd 8c10 8fbd 1b93 5abb a558 9e3c
00000060: 27ae 8ebd 8a4d af3d 5fcf 3f3d 8455 853d
00000070: e7c3 7f3d 3a98 acbd ad72 de3c c020 b5bd
00000080: b93f 753d 9f9f b4ba d414 4d3d f4da b8bd
00000090: 18df afbd b274 983a 8081 803c 1da9 7dbb
000000a0: 4890 bebd 3be8 683d 590a 21bd ea9e b53d
000000b0: 863c 88bc 73ab bf3d cc3d 523d bfe2 9abd
000000c0: be3c c13a ff28 5ebc ad8b babd beea 393d
000000d0: 9cec acbd eb5b e23c 04ed bd3d d899 07bd
000000e0: 1529 b93c 7557 453d 84bd 8a3d 9fd3 b1bc
000000f0: 9f20 653c 8990 84bc 7257 2e3d e831 8bbd
00000100: c936 50bd 27b7 d73d 84e3 973d ccae 173b
00000110: 5ba1 af3d ed17 97bd 9f17 8a3c d5e8 0b3d
00000120: e00f 413d 1e31 183d 828f 1dbc 2c8f 9d3c
00000130: f796 293d b07b 5f3d 8377 08bd 197a 453d
00000140: dfd8 a93c 6d32 afbc 98b3 8abb 9226 a83d
00000150: 52de b73d 5a35 b6bd 4697 06bd 5611 3ebd
00000160: dcd4 abbc 44b5 043c 0ce1 9b3d 0de3 2d3d
00000170: bdee 983c 7c08 afbd 1266 7fbd b03c fd3b
00000180: 1572 253c d1d4 663d 70a7 4ebd f20d 073d
00000190: 0525 a9bd 74b7 93bd babc a8bd 3ff3 aabd
000001a0: ee36 1fbd d19f 6e3d 6fe1 99bd eb0a a8bc
000001b0: f0e7 923d e6f9 30bc f816 9ebd 5f1a c5bd
000001c0: e8a3 993c cc19 443d e1fd 793d 0e93 babd
000001d0: ca1a 6a3d c013 97bd 1fc3 d93c 03fa a93c
000001e0: 71a2 d7bc 8bc8 ab3d 2b66 7abc 4544 333d
000001f0: ce74 94bd 6f72 c2bc 915b a5bc a705 c33d
00000200: 212b e2bc 0546 59bd 0013 9a3d 2a80 713d
00000210: a74c 15bd a084 b3bd 434d df3c 807f bdbd
00000220: 9169 6b3d 5095 563d 6479 363d 6d4d 363d
00000230: 4b6e 7b3d 2b41 03bd dc2d 853d 04d0 d03c
00000240: 05a4 723d 6676 b8bd 6948 823b 50a2 9d3d
00000250: d71b b53c e26b 86bd d2c8 d83c a640 bd3c
00000260: dd18 193c d368 b03d 99aa 973d 7b00 3abd
00000270: d637 b3bd 1e61 393d 2b19 1f3d bbae 94bd
00000280: 4710 45bc 17f2 bbbd 7605 5abd 20af 88bd
00000290: 5d99 60bd 82bc 76bd 3e03 983d 084e 823c
000002a0: 7c2d a3bd 7c69 54bc 2853 ec3b 2edf 2a3d
000002b0: 8d2f 523c 41ed ee3c 6872 f5bb b42a 833d
000002c0: 03bb c93d 1867 2bbc 3b4f 173d f424 b13b
000002d0: 444c 87bd a1d8 dfba 3027 473d fbba 82bd
000002e0: 3d95 d4bd 7832 95bd 28b9 30bd 9db8 3dbd
000002f0: 5752 bc3d af6d fdbc 6eb4 9d3d 6566 d3bc
00000300: 6ffd 6bbd a288 483d 35e3 08bd e516 dd3c
00000310: e7c5 6c3c d94a 1dbd cf84 5c3c b188 31bd
-0.077490345 0.06265445 0.06920813 0.08397276 -0.010980247 0.008301524 -0.08192932 0.02964157
0.062480368 0.067161955 0.04251331 0.072250344 0.05467673 1.2516096e-05 0.08371665 0.05736902
-0.08700004 -0.023061022 0.061897762 0.007031637 -0.056982975 -0.06985578 -0.0033351842 0.019329378
-0.06966811 0.08559711 0.046828624 0.065104514 0.062442686 -0.084274724 0.027154291 -0.08844137
0.059875224 -0.0013780481 0.05006869 -0.09026137 -0.08587474 0.0011631458 0.01568675 -0.0038705536
-0.09304863 0.056862097 -0.03931651 0.08868201 -0.016630422 0.09358873 0.051328465 -0.0756278
0.0014742834 -0.013559579 -0.09108672 0.045389883 -0.08443567 0.02763172 0.09273723 -0.0331057
0.022602597 0.04817911 0.067744285 -0.021707354 0.013984828 -0.016182201 0.042563863 -0.06796628
-0.050833497 0.105329804 0.07416442 0.0023144959 0.08575698 -0.0737761 0.016856967 0.034157593
0.04713428 0.037156217 -0.009616734 0.019233309 0.041403737 0.054561317 -0.0333171 0.048212145
0.020733295 -0.02138635 -0.004232835 0.08210482 0.08977951 -0.08896895 -0.03285911 -0.04640325
-0.020975523 0.008099858 0.07611284 0.04245286 0.018668527 -0.0854654 -0.0623532 0.007728182
0.010098 0.0563553 -0.05045265 0.032972284 -0.08259014 -0.07212725 -0.08239122 -0.08347177
-0.038870744 0.05825788 -0.07513701 -0.020513019 0.07173145 -0.010801768 -0.07719225 -0.096241705
0.018754914 0.047876164 0.061033133 -0.0911008 0.057154454 -0.07376814 0.026582299 0.020749098
-0.026322575 0.0838786 -0.015283148 0.04376628 -0.07248841 -0.023736207 -0.020185264 0.095225625
-0.027608456 -0.05304529 0.07523155 0.058960117 -0.036450054 -0.087655306 0.027258521 -0.09252834
0.057473723 0.05238849 0.04454936 0.044507433 0.06138448 -0.03204457 0.065028876 0.025489815
0.059238452 -0.09006958 0.003975917 0.07696974 0.022108002 -0.06563546 0.026462946 0.023102116
0.009344307 0.08613744 0.07405586 -0.045410614 -0.08750884 0.045258634 0.03884236 -0.0725989
-0.012027807 -0.09177034 -0.053227864 -0.066740274 -0.05483376 -0.06023837 0.074224934 0.015906349
-0.0796766 -0.012964603 0.0072120614 0.041716747 0.01282872 0.029165866 -0.007490445 0.06404629
0.09850123 -0.010461591 0.036940794 0.0054060165 -0.066063434 -0.001707811 0.048621356 -0.0638332
-0.103800274 -0.07285017 -0.04314533 -0.04631864 0.091953926 -0.03093609 0.0770043 -0.025805661
-0.05761474 0.04895843 -0.033419807 0.026988456 0.0144514805 -0.03840146 0.013459398 -0.04334325

fcLayer.0.weight f4 [500, 200]
00000000: 901d 8a3d b3a3 3f3d 90cf 81bd de37 4abc
00000010: 9af6 cdbc 4fb7 133d b83d a8bd e629 84bd
00000020: 0df2 b53c 692e 4f3c ebdd 873c 2dfb d63c
00000030: 0006 243c 33cd d13c 4f26 573d ac2f c73c
00000040: 71b0 063d f311 50bd 512d 9b3d 2b3c 343c
00000050: 5c07 32bd 58ff b73a ef88 a0bc d0e7 f0bb
00000060: 59c3 5cbd 8e02 573c c9f7 86bd 1c52 563d
00000070: d76f 50bd 3d2f 5b3d 9991 c4bc 5b57 8bbd
00000080: a1f3 f23b f688 5d3d 66b4 193d 5232 53bd
00000090: 61a2 e73c ea93 e93c 82e7 503d 2820 2c3d
000000a0: fd7e 173c a03d 34bc 1fbc 1c3d 4d69 553d
000000b0: 39cb 3fbd 9beb 60bd 0c65 673d 5aac 42bd
000000c0: 3795 43bc 78e3 823d c619 a7bc c837 063d
000000d0: 76d5 66bd fcfa 82bd d60b 113c d096 97bc
000000e0: 2627 31bd 75ba 86bd d573 673d ada6 8fbc
000000f0: fff5 853d 02ea 1e3d 5e58 353d 5785 d2bc
00000100: 2d7d ea3c e205 9f3c 670c 353d 1740 49bd
00000110: 8ae6 43bd aac7 e23c c931 2d3b c9f1 803d
00000120: 1ba5 423d f434 66bd f6dd f2bc 7b7c 3f3d
00000130: bfa8 3bbd 4113 c23b d10f 8f3d e995 023d
00000140: 9682 903d caca c4bc 73ba 8dbc 2a52 5cbd
00000150: 017d 0e3d 6903 653d 45c3 1e3d 415d a4bd
00000160: 9f9a 0a3d 2c17 4f3d 9e23 ee3c 45a2 fbbc
00000170: 8460 e83b 9e16 1c3d 2fac 2d3d 17a8 313d
00000180: 57a7 6bbd d88e 153d 0399 7a3d 3674 59bc
00000190: 663b dfbc e72d 243d df72 42bd 9c8f 3abc
000001a0: d0d6 8b3c a18f b23b 94a3 0bba e77a 51bd
000001b0: d803 67bd cb5e 68bc 2fb2 85bd f408 383d
000001c0: d7b3 fe3c 0095 74bd b21f f4bb ad9d 4c3c
000001d0: 927b bbbc ea3d e7bb 89d2 63bd ea7d 8e3c
000001e0: 7a2e 863b 6a9b 283c aca5 683c 1e5b 20bd
000001f0: babf 513d 5403 2fbd f38e c43c e6da c9bc
00000200: 28e5 723d e938 6c3d 0970 8238 0214 c73c
00000210: 28fd 96bc aadb e43c b3c7 f23c 178e 593c
00000220: 9ee8 d33a 4304 29bd 6fa4 40bc 1d70 3c3d
00000230: ac88 11bd d9c7 74bd 2ce5 84bd b528 75bd
00000240: 7753 63bd df99 1b3c da44 8cbd fadb ec3a
00000250: 3de1 013d fd80 8a3d be50 24bd 183e 5abd
00000260: 1dc4 a2bd 2831 f0bc 0b77 86bd f2d8 093d
00000270: 919e cd3b 4e69 f73c 82ce 663c 46c1 1bbd
00000280: 1f54 243d ade1 bfbc 17c0 64bc 43b3 88bc
00000290: 6b9f 273d 4776 4fbd 752c 84bd aa06 883d
000002a0: 324a 3dbc 0250 163c 9caf 1abc 622e 30bd
000002b0: f435 2fbd eed3 5b3c 307a 313d f431 36bb
000002c0: f197 7a3d 4ef5 483d a91e 1a3b e2ec 733d
000002d0: 341c abbc e502 71bd b835 3c3d 2ff8 853c
000002e0: 1f54 303d 3e10 0fbd ab89 e0bb 1b50 cf3c
000002f0: ce6b 53bd 3d8f 643d efa2 41bc c242 b1bc
00000300: 2b61 9abc ca47 843d 454c d4bc fd1b 8dbd
00000310: b711 923d 5099 0e3d dac2 a8bd 2d34 febb
00000320: 018f e43c b7a5 8bbd 096d 0d3c 1f1f 17bd
00000330: 31e5 183b 75a6 5dbd 055d d8bb d137 0cbd
00000340: 1764 843c bb8e 863d f58c ff3a e013 08bd
00000350: 181c 15bd 89ee c33c 2672 72bd 382a 3ebc
00000360: e2dd e23c c1bc 613d 4905 02bc 042d 443d
00000370: ef61 b03c 9136 fd3c 4ae9 3bbd d87a 6b3d
00000380: f9e4 81ba b2a9 993c 601d 823d 07ca 0f3d
00000390: c5de f23a 0fa4 163d 0060 343d af50 093c
000003a0: 500e 883b 0d97 863c b837 dabc 176e 6dbc
000003b0: 1b19 553d 41bd 1a3c c0e9 643d eea7 8cbc
000003c0: 3b1e 013d a05f 2fbb 640f 933c 3926 b5bc
000003d0: 826f 843b 0fa5 403c 2e05 653d 11f0 693d
000003e0: e598 56bc 8f2f c9bc 196d 003d 6c97 bf3c
000003f0: e34c 68bd 0e56 19bd be38 283d 7ae0 043d
0.0674392 0.046786975 -0.063384175 -0.012342421 -0.025142003 0.03606349 -0.08214897 -0.06453304
0.022210145 0.012645342 0.01658531 0.026242817 0.010011196 0.025610542 0.05252677 0.024314724
0.03288311 -0.050798368 0.07577003 0.011000673 -0.04346405 0.001403789 -0.019596545 -0.007351853
-0.053897236 0.013123168 -0.0659023 0.0523244 -0.05088791 0.053511847 -0.023995208 -0.06803771
0.0074142967 0.054085694 0.037525557 -0.05156166 0.02827567 0.028512914 0.051002033 0.042022854
0.009246585 -0.011001021 0.038265344 0.052102376 -0.046824668 -0.05491219 0.05649285 -0.04752765
-0.011937431 0.063910425 -0.020398032 0.03276804 -0.056355916 -0.06395528 0.00885292 -0.01850453
-0.043250225 -0.065785326 0.05650695 -0.017535532 0.06541061 0.038797386 0.044273727 -0.025698347
0.028624142 0.019411985 0.04420128 -0.049133386 -0.04782728 0.027683098 0.002642738 0.06296117
0.047520738 -0.056202844 -0.029646855 0.046749573 -0.045815226 0.0059227054 0.069854386 0.031881247
0.07056157 -0.024022479 -0.01730082 -0.053789295 0.03478718 0.055911455 0.038760442 -0.08025599
0.033838864 0.050559208 0.029069718 -0.030717025 0.0070915837 0.038107507 0.042400535 0.043373194
-0.057532635 0.03651318 0.06118108 -0.013272336 -0.027250003 0.04008284 -0.04747283 -0.011386778
0.017070204 0.005449251 -0.0005326804 -0.0511426 -0.05640015 -0.014182757 -0.065281264 0.044930413
0.031091614 -0.05971241 -0.0074500674 0.012488765 -0.022886071 -0.0070569413 -0.055620704 0.017394025
0.004094896 0.01029096 0.0141996555 -0.039149396 0.051208235 -0.042727783 0.023993945 -0.024640512
0.05930057 0.05767146 6.219751e-05 0.024301533 -0.018431261 0.027936775 0.02963624 0.013278506
0.0016167348 -0.04126383 -0.011757954 0.046005357 -0.03553073 -0.059760902 -0.064890236 -0.059853274
-0.05549952 0.009497135 -0.0684907 0.0018070929 0.031708945 0.06762884 -0.040116064 -0.053281873
-0.07947562 -0.029320315 -0.065656744 0.03365416 0.006275006 0.03020158 0.014087321 -0.038026117
0.040119287 -0.02342304 -0.013961813 -0.016687041 0.040923517 -0.050649907 -0.06453792 0.06641896
-0.011553334 0.009174349 -0.009441283 -0.043012984 -0.042776063 0.013417227 0.043329418 -0.002780077
0.06118006 0.049062066 0.002351681 0.05955208 -0.020887472 -0.05884065 0.045949668 0.016353695
0.043048974 -0.0349276 -0.006852349 0.025306752 -0.051616482 0.055800665 -0.011818632 -0.021638278
-0.018845161 0.06459005 -0.025915274 -0.06890104 0.07132285 0.03481418 -0.0824029 -0.0077576847
0.02790022 -0.06818717 0.008631953 -0.036894914 0.0023329968 -0.054113824 -0.0066028857 -0.03423292
0.016161008 0.065701924 0.0019496965 -0.03322208 -0.036403745 0.023917453 -0.05919089 -0.011606745
0.027693693 0.05511165 -0.00793583 0.047894493 0.021531073 0.030909808 -0.04587678 0.0574902
-0.0009910158 0.018757675 0.06353259 0.035104778 0.0018529525 0.036777552 0.044036865 0.008381053
0.004152097 0.016429449 -0.026637897 -0.0144915795 0.052025896 0.009444536 0.055886984 -0.017169919
0.03152297 -0.0026759878 0.017951675 -0.022112953 0.004041613 0.011758103 0.055913143 0.05711371
-0.013097976 -0.02455881 0.031354044 0.023387633 -0.05671395 -0.037435584 0.04106974 0.03244064

fcLayer.0.bias f4 [500]
00000000: f4fe 823d 0117 85bd f728 1c3a a84a f33c
00000010: fed6 353c ad07 373d d46c d9bc 6f96 95bc
00000020: 6249 ef3c 7255 693d a8fa 5ebd 8861 a3bc
00000030: cd30 fabc 9a0f 713d ff03 fa3c 56f5 163d
00000040: f5e4 d33b 468c 1abc 53e8 dd3c c9df ccbc
00000050: 34f1 b83c 324f 97bc 7b12 973c 44ea df3c
00000060: 729f 34bc 9d80 f83c f972 0b3d 2b1d ef3b
00000070: 9970 2f3c 87cd 08bb 2663 e43c bc08 d2bc
00000080: b1cf 963d e302 d93c 052d 6f3d c1c0 7ebd
00000090: 6c7b d43a 6272 01bd 91fe 9a3d e63b e43c
000000a0: 0256 dbbc 7830 ca3c 33fb 8dbc f265 853d
000000b0: de74 23bd 9a39 0b3d 8a1d 6e3d 28d5 093b
000000c0: 5406 8ebc cf3b 3ebd c2a0 5e3d 7b5f 6e3d
000000d0: e7a1 9c3b 885a e73c b572 6ebd 0997 37bd
000000e0: 1af6 8abd 02c5 61bd 75e3 ddbc 390a 1c3d
000000f0: d4a9 503c 920d 4abb e3f5 653d 08bd 1f3d
00000100: 2d86 6c3d 69b4 2fbd c0d4 843d 797d 0cbd
00000110: bf4a 223d ab01 113c 8cb9 7f3d 9fbd 993a
00000120: b4dc f53c 1337 70bc 7749 873d 8a27 89bd
00000130: 9086 a5bc 7887 18bd 0165 51bd e366 e73c
00000140: ee67 5c3d f529 e43c 0c65 293c 2c8d db3b
00000150: e3d3 093c 78c3 903d cce7 83bd c7fe 3f3d
00000160: 44d1 b53c 4eb9 ac3c 39fc 793c eba9 3ebc
00000170: 4753 d23c 076e 95bc 1d7c 7f3d e523 053b
00000180: eb0f 94bc 1948 84bd 18d6 d43c 6fb1 94bc
00000190: 01d7 86bc bfbe 3ebc 20ce 56bd dd77 b13c
000001a0: 9807 8d3c 8ce6 e73c 704d 73bc e4ee 4e3d
000001b0: d8d8 743d 5c28 8abd 3763 973c 8816 61bd
000001c0: 14de b93a 9f32 d93c 7285 66bd 1e90 c1bb
000001d0: de0b 85bc 44de 893d e9d2 64bd 212e 26bd
000001e0: c5d5 17bb 69ca c8bc 32ba 123b a075 27bc
000001f0: 2d04 b33c 5df8 4ebc d4e8 623d 5a4e 483b
00000200: db69 ce3c e632 3d3d bc72 6f3d 1501 9a3d
00000210: a6bd 523d fd6d 913d a5da 06bd 8c7a 123d
00000220: 753f 3f3d 51fb 373d 4d23 b33c 05f2 6f3d
00000230: b9cb 1a3d 4557 fcbb d504 56bd 0675 0ebd
00000240: 8b10 863d 59be 75bd 38c7 eebc 8746 29bd
00000250: bfa4 7bbd 7ee1 bf3c ab9e e93c 5874 913c
00000260: 2ecc 35bd 1b55 49bd b5bf 983d 438b 1cbd
00000270: 23ab 7c3d a044 19bd 7cb1 a8bc a99f 38bd
00000280: 4ad3 423d 9486 0a3d 9545 45bd b58c 4bbd
00000290: 5c17 7f3d 4fab 45bd bcc4 0ebd a0ad 933d
000002a0: 7d80 323d 36ba 08bd 4790 4ebd c214 783d
000002b0: ddab 39bd 42e6 64bd cf15 d7bc 6a19 263d
000002c0: 9f1c 5c3c acb4 3fbd 1245 e1bc 2928 c8bc
000002d0: 7b67 4b3d f608 463c 51ca 67bc 4313 2cbd
000002e0: 43c0 3e3c dbde 573d 0eba 42bd 7a70 283c
000002f0: dca7 4b3d f7f3 18bd 0c7a e23c 1614 603c
00000300: db56 9b3c ef0c 673d d9f8 81bd f83a 5cbd
00000310: 25e0 b83c 4c7f 2bbd da71 3ebd eff5 803d
00000320: 86dd 9fbc 0497 9cbc 466c 683d f8e9 1abd
00000330: 68f4 153d b313 853d 36a3 37bd 6d11 1c3d
00000340: 1cc9 923d 34be 523d eccf 8b3d 98d0 6cbd
00000350: 4ec0 6a3d e46e 263d 11ed 9a3d 257a a4bc
00000360: 6ed8 34bd 2ac3 f5bc d68c 0ebd c4c6 893c
00000370: 9bec 47bd 07a7 dabb b743 df3b dc05 71bd
00000380: ff05 06bd ae93 ef3a bfcf d63c 3572 43bc
00000390: 9b16 9abc 966d e4bb 197f b6bc 3b39 18bd
000003a0: e22c 4e3b 23bb 3bbd 9d2e 8d3d 237d 603d
000003b0: 09b2 32bd 8222 59bd 5c26 66bd 876b 693d
000003c0: 976c 86bc 20aa 5d3d ba5c 4d3d 0810 7d3c
000003d0: a5ff 593d 6e5c 71bd 8c58 483c cb82 983d
000003e0: 5e67 0a3d ac59 b5bc 09f0 593c ef6f 773d
000003f0: 0344 0a3d 5a01 83bd 455a 8cbc 6764 8b3c
0.06396285 -0.06498528 0.0005957032 0.029698685 0.011098621 0.044685055 -0.026541151 -0.018260209
0.029209796 0.056966253 -0.054438263 -0.019943967 -0.030540848 0.05885277 0.030519484 0.036855064
0.006466503 -0.009432858 0.02708832 -0.025009053 0.022575952 -0.01847038 0.01844143 0.027333386
-0.011024343 0.030334765 0.034045193 0.0072971783 0.010707998 -0.0020874457 0.027879309 -0.02563893
0.07363833 0.026490634 0.058392543 -0.062195543 0.0016211099 -0.031603225 0.07568086 0.027860593
-0.02677441 0.024681315 -0.017331695 0.06513585 -0.039906375 0.03399048 0.05813364 0.0021031592
-0.017337002 -0.046443757 0.05435253 0.058196526 0.0047800425 0.02824141 -0.058214862 -0.044821773
-0.067852214 -0.055119522 -0.027085999 0.038095687 0.012735803 -0.0030830842 0.0561427 0.038998634
0.057745147 -0.042896662 0.06485891 -0.034299348 0.039622065 0.008850495 0.06243281 0.0011729485
0.030012466 -0.014661568 0.06605809 -0.066969946 -0.020205766 -0.037238568 -0.051121715 0.028247302
0.053810053 0.027852038 0.010339033 0.0067001786 0.008412334 0.07068533 -0.06440696 0.046873834
0.022194512 0.021084454 0.0152578885 -0.011637191 0.025674475 -0.018240942 0.062374223 0.0020315584
-0.018073997 -0.06459064 0.025980994 -0.018151013 -0.016459944 -0.011642157 -0.05244267 0.0216636
0.017215535 0.028308176 -0.0148500055 0.050520793 0.05977711 -0.06745979 0.018479927 -0.054953128
0.0014180564 0.026513396 -0.056279607 -0.0059070727 -0.01624101 0.06731847 -0.055865202 -0.040571336
-0.0023168188 -0.02451058 0.0022388813 -0.010220915 0.021852577 -0.012632457 0.055397823 0.003056428
0.02519696 0.04619112 0.05845903 0.07519738 0.051450394 0.07101057 -0.03292336 0.0357614
0.046691377 0.04491741 0.021867419 0.058580417 0.03779194 -0.007700833 -0.052250702 -0.03477957
0.06546124 -0.059995983 -0.02914773 -0.041327026 -0.06143641 0.023422953 0.028518042 0.017755672
-0.044384174 -0.04915343 0.0745844 -0.038218748 0.061686646 -0.03741896 -0.020592444 -0.04507414
0.047564782 0.03381975 -0.04816206 -0.049694736 0.062278137 -0.048259076 -0.03485559 0.07210851
0.043579567 -0.03338071 -0.050430562 0.06056667 -0.045329917 -0.055883653 -0.026255516 0.04055158
0.013434558 -0.04680316 -0.027498756 -0.024433212 0.049659234 0.012087097 -0.014147357 -0.042010557
0.011642518 0.052702766 -0.047540717 0.010280723 0.04972063 -0.037342038 0.027646087 0.013676664
0.018962314 0.05640882 -0.06346292 -0.053767174 0.022567818 -0.041869447 -0.046495296 0.06296908
-0.01951481 -0.019114979 0.056743883 -0.037820786 0.036610037 0.06497898 -0.044833384 0.038102556
0.07167265 0.051450923 0.06826767 -0.057816118 0.057312302 0.040633097 0.07564748 -0.020077774
-0.044151716 -0.030000288 -0.03480228 0.016818412 -0.04880963 -0.0066727432 0.006813492 -0.05884348
-0.032720562 0.0018278265 0.026222108 -0.011929085 -0.018809607 -0.0069710715 -0.022277402 -0.037163954
0.0031459858 -0.045832764 0.068936564 0.05480684 -0.04362682 -0.053011425 -0.056188926 0.05698731
-0.016409202 0.054117322 0.05013726 0.015445717 0.053222317 -0.05892604 0.0122281425 0.07446822
0.033789985 -0.022137485 0.013301858 0.060409483 0.033756267 -0.06396742 -0.017132888 0.017015649
