src/models/model_epoch_lattn_ 2.pth (torch, 672449 bytes, 10 tensors)

localAttentionLayer_user.attention_layer.0.weight f4 [1, 1, 5, 100]
00000000: eee3 3f3c 4f42 14bd 9f25 5c3c 35f1 b13a
00000010: 34ce 17bd 1071 51bd 3259 34bd 251b 9abc
00000020: 381f 26bd bf9a 10bd 7ab4 2ebd 0b6c e2bc
00000030: c779 84bc bca7 c1bc 3985 75bc 1830 423b
00000040: 910e ab3c fb49 cebb 5293 e13b 31c5 47bd
00000050: 3ee9 bb3c a932 1cbd 0c13 91bc dc49 06bd
00000060: a360 4bbd cd40 5dbd 7416 c0bc a0c5 08bd
00000070: 449a 0dbd 4b71 8e3c bf4f 953c 48ef b03c
00000080: fee8 a13c 8f8b 0dbc a458 953c 7d06 1cbd
00000090: f29d bb3c 5e64 0abd 7846 b2bb ff60 49bd
000000a0: e55d f6bc 256f 68bd 1d55 b8bb d05b 973c
000000b0: ccbe 993c 6be5 d2bb 5502 17bd dd33 1cbd
000000c0: 7ce9 17bd a2d4 dc3c 48cb 36bd 4055 dcbc
000000d0: fabb 0bbd bf34 40bd 940d 3fbd cb38 8fbc
000000e0: 36ab 2abd e7cc 1ebd 6021 593c 5c16 2fbd
000000f0: c993 1a3b 57f4 36bd 53fb c2bb a7c8 17bd
00000100: 3b7d 31bd 0544 243c a91c 57bd 1b32 6fbb
00000110: d3a1 233c 9dd4 4cbd 9bf8 a3bc 9fe4 01bd
00000120: 7967 713b c768 d73c a874 48bd 74ae c6bc
00000130: 9ac1 84bb 0144 60bd 7ee4 ea3b aed9 b0bc
00000140: 121e eebc 5d40 5abd f4ac d03b fe7e 06bd
00000150: e273 e7bc b0d0 8f3c 550a aa3c 64ca f3bc
00000160: 5c44 d0bc fc7c 0abd a8d1 dd3c 4917 21bd
00000170: 1491 ae3b 18e2 923a 245e 36bd eb07 4d3c
00000180: cf2b 27bd 9792 d0bc 302b dd3c b7a6 0abd
00000190: 3762 b8bc 6fac e03c 95ed 38ba e419 4bbd
000001a0: 9007 d53c 2f07 ef3c 6306 203c 7a0b 7dbc
000001b0: 4332 51bd fe3c 343b 0a4a e73c 6ffb 003d
000001c0: f2a6 433b bb68 42bc 007f 15bd d99f c5bc
000001d0: c1d9 64bd 43c5 65bd c6be 27bd 042e 4dbc
000001e0: 2cad ba3c 1c8a 11bb 925a a73c 2e79 b03c
000001f0: a724 4ebd ba36 2639 28e1 323b 246f 03bb
00000200: f252 8c3b 142c 52bd 873f 2d3b 2dac 19bd
00000210: ffd0 c23c 25d7 01bb 7751 40bd 0090 50bc
00000220: b807 39bd 214d 52bd 67c4 4e3c e7af 52ba
00000230: 7fa1 fd3c c93f 55bd 26a3 923c 2e87 96bb
00000240: 34f1 d63c 6fde 57bd fd83 8a3b e5ce c63c
00000250: f211 c7bc 72ae 3ebd f122 26bd 1b0b 5ebd
00000260: 8db7 41bd b70f d0bc 3830 e73c 993a 55bd
00000270: a109 33bd 085f ad3c 5e13 803c 25f8 26bd
00000280: 11ab c5ba 1b1a 013d 50e1 68bd b304 823c
00000290: ff5f b7bc 05fa fe3c 2435 cebc cf4d 23bd
000002a0: e1e8 e93c 4442 db3c 4cc3 51bc 4a74 d23b
000002b0: d0a0 90bc 4977 fd3c 34e9 b83c ee48 8fbb
000002c0: 9b40 f0ba d460 57bd 90f4 80bc 5231 bcba
000002d0: 17b5 9e3c 2265 3cbd 5b16 813c dfcb 39bd
000002e0: 422a 4abd 56fb 61bb 7508 67bd 6ac1 debc
000002f0: 2ca4 41bd 1d06 5c3c f24c a9bc 956a 8ebc
00000300: c1b6 49bd 1951 a7bc 44b2 4fbc bb2e 85bc
00000310: 7737 67bd f71c 8fbc 25ce 31bd 3a03 d6bc
00000320: 5b8d 5ebc 49e5 79bc c111 49bc f6b7 70bc
00000330: 23cf d6bc 7013 33bd 0e90 72bd deb9 a63c
00000340: e909 613c 4763 9bbb df12 fabc a3d6 70bd
00000350: 7efd 7ebb c2c4 303b deec 903c 1632 a83c
00000360: d855 05bd f82e 6abd eaa4 08bd 1d1a 91bc
00000370: 296e 46bd 4892 3b3c a934 b33c 2725 5fbd
00000380: 5e59 353c b823 9e3c 5c81 9c3c 4355 353c
00000390: b242 4abd 6a71 37bc 8122 9e3c 6b4f 65bc
000003a0: 3860 fa3b 2aab a53b 12e2 1f3c 350f 4c3b
000003b0: c2e5 3cbb 9edb 863b 7df3 8abb e9f2 73bd
000003c0: 303a d83b 08e2 66bd a8df 34bd a4e7 51bd
000003d0: b7c6 9abc 173d 353c 1db7 12bd c687 d5bb
000003e0: 50b6 d73b d739 8dbc aece fc3b 1972 953c
000003f0: c50a 2bbd 76bb 38bd a235 1ebd e3c4 163b
0.0117120575 -0.03619605 0.013436704 0.0013575914 -0.037061885 -0.051133215 -0.044030376 -0.018811772
-0.040557116 -0.035303827 -0.042652585 -0.02763941 -0.01617135 -0.023639552 -0.014985376 0.0029630717
0.02088097 -0.0062954403 0.006884017 -0.04877204 0.022938367 -0.03813425 -0.017709278 -0.03278528
-0.049652707 -0.054016877 -0.023448206 -0.033391595 -0.034570947 0.017388007 0.018226502 0.021598473
0.01976442 -0.00863923 0.018230744 -0.038092125 0.022902463 -0.033787124 -0.0054405294 -0.04916477
-0.03007407 -0.05674662 -0.0056253807 0.018476397 0.018767737 -0.00643604 -0.03686746 -0.0381354
-0.037087902 0.02695686 -0.044627458 -0.02689612 -0.034114815 -0.046925303 -0.04664381 -0.017483136
-0.041667186 -0.03876963 0.013252586 -0.042745933 0.0023586622 -0.044666614 -0.0059503703 -0.03705659
-0.04333232 0.010025983 -0.052517567 -0.003649837 0.009987312 -0.05000745 -0.020016005 -0.03171217
0.0036835356 0.026295079 -0.048939377 -0.024253108 -0.0040513994 -0.054752354 0.0071683517 -0.021588173
-0.029067073 -0.053284038 0.006368274 -0.032835953 -0.0282535 0.017555565 0.02075688 -0.029759593
-0.025423221 -0.0338106 0.027077511 -0.039328847 0.0053273533 0.0011206297 -0.044523373 0.012514095
-0.040813264 -0.025460524 0.026998132 -0.033850398 -0.02250777 0.027425973 -0.00070544455 -0.049585238
0.026004583 0.02917823 0.009767148 -0.015444631 -0.051073324 0.0027502174 0.028233547 0.031489786
0.0029854146 -0.01186579 -0.03649807 -0.024124073 -0.05587173 -0.056096327 -0.04095342 -0.012523178
0.022787653 -0.0022207564 0.02042893 0.021542158 -0.050327923 0.00015851381 0.0027294848 -0.0020055259
0.004282349 -0.051311567 0.002643557 -0.037517715 0.023781298 -0.0019812074 -0.04695269 -0.012729645
-0.045173377 -0.051343087 0.012620068 -0.0008037076 0.030960796 -0.052062783 0.01790006 -0.0045937514
0.026238061 -0.052702364 0.00422716 0.024268577 -0.02430055 -0.046553083 -0.040560666 -0.05420981
-0.04729419 -0.025398118 0.028221235 -0.052057836 -0.043710355 0.021163478 0.015634235 -0.040763993
-0.0015080889 0.031519037 -0.0568555 0.015871381 -0.022384642 0.031125078 -0.025171824 -0.039869126
0.028553428 0.026764996 -0.01280291 0.006422554 -0.017654806 0.030940669 0.022572137 -0.0043727076
-0.0018329801 -0.052582577 -0.015741616 -0.001435796 0.01937346 -0.045994885 0.01575773 -0.045360442
-0.049356706 -0.0034482083 -0.05640455 -0.027191836 -0.047275707 0.013429192 -0.020666573 -0.017384807
-0.049246553 -0.020424413 -0.012676779 -0.016257634 -0.05644938 -0.017469866 -0.043409485 -0.026124585
-0.013583506 -0.01525242 -0.012272299 -0.014692297 -0.026221817 -0.04371971 -0.059219413 0.0203523
0.013735273 -0.0047420594 -0.030526577 -0.058798444 -0.0038908417 0.0026972746 0.017691072 0.020531695
-0.03255257 -0.0571737 -0.0333604 -0.017712647 -0.0484449 0.01144845 0.021875696 -0.05447879
0.01106867 0.019304141 0.019104652 0.011067691 -0.04938001 -0.011196474 0.019303562 -0.0139959855
0.0076408647 0.0050558047 0.009758489 0.0031136994 -0.002882347 0.004115536 -0.004240452 -0.05955783
0.0065987334 -0.056367904 -0.044158608 -0.0512463 -0.018893583 0.011061928 -0.03581916 -0.0065164296
0.0065830126 -0.017239494 0.007715068 0.018242883 -0.041758318 -0.04510065 -0.038625367 0.0023005537

localAttentionLayer_user.cnn.0.weight f4 [200, 1, 1, 100]
00000000: 89e6 95bd 9a0e 363d a112 99bc f74f 5a3d
00000010: 649a 09bd 0dcf 45bd a865 683d 8033 78bd
00000020: 6ad6 b93d d44d b73c 2532 19bc cf80 c3bc
00000030: a360 093d ee7e b83d 0c47 b93d 158c ccbc
00000040: 4bff 4d3c 06b8 cd3d b334 9e3d 943f d43c
00000050: 5c83 6d3c 2c8f 69bd 4029 dabc ccbc bd3c
00000060: 5ae2 52bd 61f6 05bd e5e2 40bd 14d9 a73d
00000070: 0e2f eb3d 2330 d43a cbfe 9a3d 895c 76bd
00000080: 9380 a0bc d413 98bd 6095 95bd 8115 e73d
00000090: c092 b9bb 931d b73d 008e f8bc 9d90 243d
000000a0: e0ca 20bd eeba a7bd abe5 05bd 2450 0a3d
000000b0: aaff a7bd f976 b53d 172b 223d 17dc 92bd
000000c0: 3a67 da3d 6cb5 9cbc 718e 67bd f597 ffbb
000000d0: 3e95 35bd f626 833d 5b38 403c 1504 bebc
000000e0: 60c2 82bd ca3a e03c 78a2 903d 0c9c 693b
000000f0: cfa2 ae3d 2eba 823d aa36 3c3d 9896 ab3c
00000100: 4378 073d 63b9 3dbd 1464 43bd 3948 a0bd
00000110: 50ae 5d3d eb1b a13c a984 28bd fdcf be3d
00000120: c9ff 2a3d e4f6 ae3b 1ca7 c53c c329 7a3d
00000130: 195d ea3c b6cd 5f3c 0c9d 93bd 949c b8bc
00000140: 0246 913d 92cc 663b 911d 9e3d 5298 80bd
00000150: 19f5 933d f44e bebc 4bf2 90bd 1525 a13d
00000160: 76af 273d 0279 1a3d 6d9d eb3d 79a8 8dbd
00000170: 4117 ed3d 5ca0 b83c 6528 d73b a4b0 d33d
00000180: f338 a3bd 54a2 a73c 76d8 783c f29a c33c
00000190: f18d 97bc a15b be3b a735 143d 438d 193d
000001a0: 83a6 f2bc 3d4b 343c caa2 a93d e605 723d
000001b0: ad06 b63d fc23 a63d 2c0f a63d 4af4 4d3d
000001c0: a92a bc3d 3989 c63d e7e1 c5bc 8fc2 f2bc
000001d0: 2094 7d3d bafe b43d 186f 8a3d f38b b9bb
000001e0: dd4d 6bbc 595c 743c b3fd 8f3d b569 9c3d
000001f0: 0364 8c3d 58b3 a43d e348 13bd 3001 edbb
00000200: ae9e af3c a289 bcbd ab0b 53bd 6d4e 8ebd
00000210: 5301 933c 1eb9 943d 723d f63b da2a c2bd
00000220: ab1a 85bd 9127 c03d 58e2 793d 3be6 cfbb
00000230: eca3 7abc 796d 943d 673d a6bd 9acb 6b3d
00000240: 12d6 243d 0a72 b13c 7bc7 8fbd 3c02 f9bb
00000250: 1952 eb3b fd7b a93d 3da1 473d cd2c c0bd
00000260: 3589 5abc 3f94 c1bd 1480 ae3d 6536 973d
00000270: 9839 d13d f746 9f3d b0be 8e3d e2e1 bc3c
00000280: 616c ce3d ff57 c33d f32a 1b3d a63f 273d
00000290: 2504 573d d969 94bd b8a6 7fbd 0694 813d
000002a0: c235 9e3d bd1a 453d f968 72bc 8f4c 43bd
000002b0: dd97 ac3d 2c0c 80bd 4003 133d 1341 893d
000002c0: 4534 65bc 552b fd3c 3ca1 24bd 339b 53bd
000002d0: b79a 833d 9ba4 8fbc 2037 2dbd f921 94bd
000002e0: fe4a 113d 1c0b 3fbd 9b9b 873d e0e4 aebd
000002f0: 83c8 cf3d ae81 713d 32e4 f5ba 363f be3c
00000300: 2959 c93d c76a 8fbd 5bb4 44bc 9db4 9d3d
00000310: b55d b2bc d018 313d 725e 22bd f40e 613c
00000320: 369a 4e3d e3a3 993d e4df 90bd c83c a0bd
00000330: ca75 c0bd 66f7 fdbc 40ae cdbd 1879 1d3d
00000340: c61e 80bd 4fe5 d73c 8937 693d e33f 8dbd
00000350: adfe 03bd c19e b23d 604c a5bd f597 4abd
00000360: 8dff 70bd 03fe 84bd 377f c8bc 6112 8bbd
00000370: 344b 9c3d 96a8 c5bd 80a0 babd e91c 5f3c
00000380: 8c8c 08bd 8453 893d 13f7 98bd bb33 9bbd
00000390: d503 4c3d f258 02bc 92e8 043c cbcc 303d
000003a0: 3924 2f3d 4ad7 bb3d cfc5 5fbd 4eb4 06bb
000003b0: a4b7 8b3d 2cf4 b3bd d48e 99bd 2d70 7dbd
000003c0: 38a3 843d b8a1 96bd 51bd c1bc 1fdc 813d
000003d0: 0ea2 a63d 74ba b73d 3dfa c5bd fc50 9ebd
000003e0: a80c f6bc be51 543d 63bd 193d fd94 b33c
000003f0: 5b2e 883b c12a 8abd 349d 323d 2edb b2bd
-0.07319362 0.04444752 -0.01868564 0.053298917 -0.033594504 -0.048293162 0.056737572 -0.06059599
0.09074099 0.022375979 -0.009350334 -0.023865132 0.033539426 0.09008585 0.09046754 -0.02496914
0.012573074 0.10044865 0.07724895 0.025909223 0.014496651 -0.057021305 -0.026630998 0.023161314
-0.051485397 -0.03270567 -0.047091383 0.08195701 0.11483584 0.0016188662 0.07568129 -0.060146842
-0.019592559 -0.07425657 -0.07303882 0.112833984 -0.005663246 0.08941188 -0.030341148 0.040176976
-0.039255977 -0.08189951 -0.03268973 0.033767834 -0.08203061 0.08860583 0.039591875 -0.07170885
0.1066422 -0.019129477 -0.056532327 -0.007800097 -0.04433178 0.064039156 0.011732186 -0.023195306
-0.0638473 0.027371783 0.070622385 0.003564599 0.08527147 0.06383167 0.04595057 0.020945832
0.033073675 -0.046319377 -0.047702864 -0.078262754 0.054121315 0.019666633 -0.04114214 0.09317014
0.041747842 0.0053394902 0.024127536 0.061074983 0.028608846 0.013659885 -0.07207689 -0.0225356
0.07093431 0.0035217148 0.07720483 -0.06279053 0.07224483 -0.023231007 -0.07077464 0.07868401
0.040938817 0.03771306 0.11504636 -0.06916899 0.11576701 0.022537403 0.0065660947 0.10336426
-0.079698466 0.020463146 0.015188327 0.023877595 -0.0185003 0.005809263 0.03618398 0.037488233
-0.029620415 0.011004266 0.08283003 0.059087656 0.08887992 0.08112332 0.081083626 0.0502818
0.09187824 0.09694142 -0.02415557 -0.029633788 0.06190884 0.08837648 0.06759471 -0.005662435
-0.014361826 0.0149145955 0.07030811 0.076373495 0.06855013 0.080420196 -0.035958182 -0.0072328076
0.021437969 -0.09205939 -0.0515248 -0.06948552 0.017944967 0.07261871 0.007514649 -0.094808295
-0.06499227 0.09382547 0.061006874 -0.0063445843 -0.015297871 0.07247443 -0.0811718 0.057567216
0.040243216 0.021660823 -0.0702047 -0.0075991433 0.0071814177 0.08275602 0.048737753 -0.09383545
-0.013338377 -0.09452104 0.08520523 0.07383422 0.10216063 0.07777207 0.069699645 0.023056928
0.100792654 0.09538268 0.037882756 0.040832184 0.052494187 -0.07246751 -0.062414855 0.06327061
0.07725097 0.048121203 -0.014795535 -0.047680434 0.08427403 -0.062523216 0.03589177 0.06701865
-0.013989513 0.030904451 -0.040192828 -0.05166168 0.06425994 -0.017534545 -0.0422889 -0.07233042
0.03547191 -0.046641454 0.06621476 -0.08539748 0.101456665 0.058961563 -0.0018760024 0.0232235
0.09831459 -0.07002788 -0.012005891 0.07700465 -0.021773199 0.043236554 -0.03964085 0.013736475
0.050440036 0.07501962 -0.07073954 -0.07824093 -0.093974665 -0.031001758 -0.10043001 0.038445562
-0.062558696 0.02635446 0.056937728 -0.06896951 -0.0322253 0.08721686 -0.08071208 -0.049461324
-0.058837462 -0.064937614 -0.024474723 -0.06790615 0.07631531 -0.09651296 -0.09112644 0.013617733
-0.03333716 0.067053825 -0.07469001 -0.07578226 0.049808342 -0.0079557765 0.00811209 0.043164056
0.042759154 0.091719225 -0.054632004 -0.0020554247 0.06822136 -0.087868065 -0.074979454 -0.061874557
0.06476444 -0.07355064 -0.023649843 0.06340813 0.08136378 0.0897111 -0.0966687 -0.0773029
-0.030035332 0.051835768 0.03753413 0.02192163 0.0041559166 -0.06746436 0.04360695 -0.087332115

localAttentionLayer_user.cnn.0.bias f4 [200]
00000000: eb50 9dbd 78c4 683c 91d5 bfbc 7a4c 833b
00000010: b355 423c ae39 b83d d934 9cbd b85b 9d3d
00000020: 47b3 8bbd 6886 7c3d e89c 583d bb19 0dbd
00000030: b988 c43d 2013 92bd 7e7a 0d3c 67a4 753d
00000040: 983b 19bd e832 e23c 712a aabc 1b56 6bbd
00000050: 2f89 4bbd ac30 73bd 9d7a 38bd c651 99bd
00000060: 0398 923d 317b 94bb 5bb7 45bd 6a4e 093b
00000070: d697 a73c bb24 bfbd a45a a93d adf8 273d
00000080: 319e 493d d75f 68bd 00b5 48bc 6f67 bebb
00000090: febe 6ebd ab9b 8dbd 7003 f2bc 3d28 9b3d
000000a0: 7383 53bb ea33 42bb 407b 6cbc 6e93 31bd
000000b0: e205 c8bc 95d9 2fbc 97a1 853c 7c29 a1bd
000000c0: 5cf7 8d3a ed8a 473d 4ae1 c0bc 3400 8ebc
000000d0: 8ab0 1b3c dc75 0f3c dcd2 26bd d035 293c
000000e0: 7cfd 93bd 186d b73c 324d 0c3d d25a 393d
000000f0: cad4 2f3d a78c de3c c0f1 b7bd 31c3 8b3c
00000100: 8cc1 adbd 1cdf d83c 64f3 35bd 2e5d 7cbc
00000110: ba45 733c 8045 783d b60a 0f3b 6312 f23c
00000120: 9602 0ebd 0b0d 9b3b 262b f73c 9265 a33d
00000130: dda7 9fbd 5eb3 cebc 6084 41bd 81a0 8cbd
00000140: 4896 2fbd 5b16 aa3d bedf 153d 6cf9 313c
00000150: de4a c93c fc77 283d 644a 9d3c 7075 23bb
00000160: c75a e03c c865 7d3d 28bb 43bd aa6f ca3c
00000170: b94e 61bd 7840 90bd 2141 cd3b 70db b63a
00000180: 50fc 9d3b 0302 b339 4e41 b4bd 597b a93c
00000190: 99a0 913c 1cc8 b8bc 712d 113b eaef 92bd
000001a0: 9a70 e0ba d9d4 333b 3302 fe3a 6fde f03c
000001b0: 71a7 aabd b317 8abc 10a8 18bd fe84 3e3d
000001c0: be63 693d dbef 1b3d 1989 a93d b8a5 9cbd
000001d0: 7781 c0bd 0056 50bd 9b1a 60bc 4d43 27bd
000001e0: bb03 42bd f7b6 89bd 1fd4 f03c 7f98 8cbd
000001f0: 1eec 8abd f82d 993d bd9d 933d ad07 893d
00000200: 9a7a 2c3d fa27 a43d d1db 96bc f1c3 9ebd
00000210: 6d7d 3e3c bec7 96bd 01d0 b6bd 0765 473d
00000220: 5fd5 a73d 52c9 9fbd fe0c 873d d9cd c4bc
00000230: 2ada 893d 5002 b4bc 5051 dc3c 3b63 a1bd
00000240: d512 febc 948f aabd 78b1 59bd 04df 93bd
00000250: 85f4 0fbc 3843 13bc 4f24 aabd 87f5 27bd
00000260: adbc a93d 5c8d 89bd 7e12 323c 24a1 dcbc
00000270: e2c1 f03b 9ad9 5abd 0e47 96bb 9f9f d03c
00000280: 143a 8e3d dc50 f0bb 4851 4f3c e317 b93c
00000290: ccbf 61bc 2cea 96bd 1627 5d3c 327c a53d
000002a0: 0548 283d 50ae cfbc 9936 0cbd c42a 923d
000002b0: af57 a4bd 3c48 a1bc 9001 7e3d 9d28 353d
000002c0: dd0f abbc c0c9 853d e927 9a3d 29f8 30bb
000002d0: 0956 b6bb 4be7 afbd 46a8 553d 44bc 2ebd
000002e0: 4398 243d 3152 703c 200c 8e3d 46bc 8a3d
000002f0: 3e14 943d 6f67 993d 95ae 69bd 7396 a3ba
00000300: ce7a 2eba 6124 a63d 5a8a febc 7567 19bc
00000310: 18fd 92bd ec66 903d 6395 793d 6ffa 3abd
-0.076814495 0.014206998 -0.023417266 0.0040069195 0.011861253 0.089953765 -0.076272674 0.076835096
-0.06821304 0.061651617 0.052884012 -0.034448367 0.0959639 -0.07132554 0.008635161 0.05997124
-0.03741035 0.027612165 -0.02077219 -0.057455163 -0.049691375 -0.05937259 -0.045038808 -0.074863
0.071579 -0.004531287 -0.048270565 0.002095128 0.020458143 -0.09333178 0.082692415 0.04100864
0.04922313 -0.056732025 -0.012250185 -0.00581067 -0.058287613 -0.06914457 -0.029542655 0.07576034
-0.0032274395 -0.0029632994 -0.014433682 -0.04335349 -0.024416868 -0.010733028 0.016312404 -0.07869241
0.0010831165 0.048716474 -0.023544926 -0.017334081 0.009502539 0.008756127 -0.040728435 0.010327771
-0.07226083 0.022390887 0.034253307 0.04525263 0.04292754 0.027166678 -0.08981657 0.017060848
-0.08484182 0.026473574 -0.04442157 -0.015403075 0.014848167 0.060613155 0.0021826453 0.029549783
-0.034670435 0.0047317795 0.030171942 0.079783574 -0.07795689 -0.025232013 -0.047245383 -0.06866551
-0.04286793 0.08305045 0.03659033 0.010862689 0.024571832 0.04113005 0.019200511 -0.0024941824
0.027387036 0.061864644 -0.047785908 0.024711449 -0.055006716 -0.070435464 0.0062638675 0.0013950896
0.0048213378 0.0003414304 -0.088015184 0.0206887 0.017776774 -0.022556357 0.002215233 -0.07174666
-0.0017123402 0.00274401 0.0019379318 0.02940294 -0.08332718 -0.016857004 -0.037269652 0.04651355
0.056979887 0.03807054 0.082781024 -0.07648796 -0.093996935 -0.050863266 -0.013678218 -0.040835667
-0.04736684 -0.06724351 0.029398022 -0.06865024 -0.06783317 0.07479471 0.072078206 0.06690917
0.04210911 0.080154374 -0.018415364 -0.077522166 0.0116265835 -0.073623165 -0.08926392 0.04868033
0.08194994 -0.07802071 0.06594275 -0.024023937 0.067310646 -0.021973759 0.026894242 -0.07880255
-0.03101484 -0.083281666 -0.053147763 -0.07220271 -0.008786325 -0.008988194 -0.083077066 -0.041005637
0.0828794 -0.06716415 0.010868667 -0.026932307 0.0073473314 -0.053430177 -0.004586107 0.025466738
0.06944671 -0.007333858 0.012653656 0.022594398 -0.013778638 -0.073688835 0.013498088 0.08080329
0.04108431 -0.025351673 -0.034231756 0.07137063 -0.08024537 -0.019687764 0.06201321 0.044228185
-0.020881588 0.065326214 0.075271435 -0.0027003384 -0.0055644554 -0.085890375 0.05216243 -0.042660013
0.04018427 0.014668033 0.069359064 0.067741916 0.072304234 0.074904315 -0.05705126 -0.001248075
-0.00066558726 0.081124075 -0.03107183 -0.009363045 -0.0717718 0.07050881 0.060933482 -0.04564899

localAttentionLayer_item.attention_layer.0.weight f4 [1, 1, 5, 100]
00000000: 5454 1ebd 6eb2 2bbd 5968 3f3c 6ae8 063d
00000010: 20bd 213d b5b2 a7bc d959 383b f7d6 97bb
00000020: 05c2 55ba 6c52 16bd 7081 ad3c 51e3 c23c
00000030: 27a0 10bd 2ba0 b73c 43d9 78bc 75c4 bdbb
00000040: fa8f 1bbd 39fd 79b9 c1e7 07bd c6cb 223c
00000050: e43e eabc db06 afbc 8d4c abbc 8e81 3f3b
00000060: 8590 03bc f754 163c c042 b6bc 6ff9 1abb
00000070: 8b7a c5bc b0be 1a3d ee87 debc 0a3a 2dbd
00000080: a5e2 82bc 3a32 06bd 250e 27bd ce54 72bb
00000090: 8de1 143c 7a87 a13c ec66 d6bc 14e2 613c
000000a0: dd8f 733c 9cdb 55bd f079 063d 7756 57bd
000000b0: 5929 d83c e795 8f3c 611a 0dbd 080c 343c
000000c0: 82d2 443b 1a8f d23c c006 a33b a15a 043d
000000d0: a6b1 ff3c 6063 c93c 083a 0a3b 26d3 f63c
000000e0: 59b5 a63c 1897 c83b 21ea a6bc c067 443c
000000f0: 04b0 41bd 3ea2 cdbc 51a7 533c 4ceb 173c
00000100: a9be 02bd 83c5 5ebc 5b5f 25bb ad36 41bd
00000110: ccaa e9bc bca4 d63c d000 2ebd ad0e 1ebd
00000120: 810b 70bb 8d8e 58bd 8d60 113c 3e33 24bd
00000130: 176e 1dbd 16e0 62bb f49a 5aba 299c 8cba
00000140: 36e8 d8bc 8d94 22bc 2431 013d a8c0 183d
00000150: 4769 35bd d1f4 3dbc 3adb faba 5f35 1bbd
00000160: c779 62bd 7cba 743c a775 903c 601b 1fbb
00000170: d818 b5bc 7ab1 fb3b ddf6 9bbb edbd e5bb
00000180: 785a b13c 23ed cf3c c618 ae3c 77d8 8cbb
00000190: 7e5f 753c 6a8a 31bd 8079 b3bc 7516 f8ba
000001a0: f154 54bd 008d 9dbc 3c0b cf3c eac4 30bd
000001b0: 4564 40bc dedd b73c bc1c 0abd 2f62 bcbc
000001c0: 43b6 83ba 9f8a bc3c 6610 dbbb 5143 35bd
000001d0: 8aae 4cbd 3d6c 59bc 5acc 90bc bcc0 e03b
000001e0: 7673 67bb a2e1 70bd b58c 713c 6d13 fb3c
000001f0: d888 0b3d d2b3 013d d275 e13c e904 b53b
00000200: 1570 48bd 9882 45bd 5a4b de3c 9408 2dbc
00000210: 1d32 833c ecf1 053d 6e01 9dbc 07e6 ac3c
00000220: c3e4 0abd baf4 d43c 36d0 b7bc 96a0 da3c
00000230: 39d5 20bc ab1b eebc b074 08bd cdb2 55bd
00000240: fa8a d33c 346e 76bc 7974 35bd b745 2ebd
00000250: 7eb3 55bd aeed 26bd d2f3 f83b 6f3a 0e3d
00000260: 1e61 d93c 4500 ff3b 10b0 cf3c c1ff fdbc
00000270: 2c83 ab3c 8a94 56bd 4f36 63bd 7dff 6dbc
00000280: 00e5 0f3c 371a 1cbd e988 47bd 1506 35bd
00000290: 4782 063d ffcf 0bbd a429 68bd 0428 7bbc
000002a0: 758c 3c3b b45d 49bd aed4 5b3c 9cb5 5fbb
000002b0: 9c52 a6bb 128d 993a 57b3 213c 29d6 78bc
000002c0: f9cf 823c 900f c2bb e436 9a3b ddd4 adbc
000002d0: 9a4b 273c 118d 18bd 5424 563c a930 16bd
000002e0: 63bd 183c 3b45 a53c 79d5 57ba 1858 9a3c
000002f0: 4892 59bd a55c b93c 8291 ed3c 53cf 013d
00000300: d850 c73c d938 53bc d5d3 07bd ac43 4fbd
00000310: 112c fcbb ae1b f63b 3af0 e8bc dc15 61bc
00000320: 32ec 783b c281 d8bc b78a 833a 2125 fbbc
00000330: 576e 6dbd bf87 30bd 14cc 3ebd 5d25 6fbd
00000340: d6df e23b d063 df3b 0167 553c f562 9abc
00000350: 394e 53bd 484f 663c d5da 10bd f21d daba
00000360: 890d 09bc b08f e2bc f0ef 10bd 23a0 6dbd
00000370: 4767 75bd 731d cebc f662 cfbb 7f4b f0bc
00000380: bb86 0dbc 5c98 b43c a90a 2ebd b44e 853c
00000390: 7aa8 23bd 4df6 61bd 801a bc3b 3835 d0bc
000003a0: b969 18bb 15ce 5bbd c523 27bd 3e79 333c
000003b0: d967 c03c e528 bb3c de24 063c 0488 993c
000003c0: 8671 d7bc 5f2e e3bc ef98 73bb c73a 2fbd
000003d0: 6d46 9e3c d977 73bc d3db d5bc ab10 25bd
000003e0: b050 22bb 6179 a93b 140f 3ebd a736 12bd
000003f0: 3452 2fbd 5c39 72bd 6c8d 77bc 260d bebc
-0.03865464 -0.04191821 0.011682593 0.03293649 0.039487004 -0.020470956 0.0028129725 -0.00463378
-0.00081542163 -0.036699697 0.021179885 0.023790034 -0.035308983 0.022415241 -0.015188518 -0.005791242
-0.037979104 -0.00023840823 -0.033180002 0.009936279 -0.028594442 -0.021365574 -0.020910526 0.0029221508
-0.008030062 0.009175531 -0.022248626 -0.002364721 -0.024106285 0.03777951 -0.027164426 -0.04229168
-0.015977213 -0.032762744 -0.040784974 -0.0036976817 0.009086979 0.01971792 -0.026172124 0.013786811
0.014865843 -0.05221139 0.032831132 -0.052572694 0.026386904 0.017527534 -0.034448985 0.010989197
0.00300327 0.025703002 0.00497517 0.032312993 0.031212639 0.024583519 0.0021091718 0.03012998
0.020350145 0.0061215274 -0.020375313 0.011987627 -0.047287002 -0.025101777 0.012918309 0.009272408
-0.03192011 -0.013596895 -0.0025233838 -0.047171284 -0.028523825 0.026201598 -0.042481244 -0.038588215
-0.003662795 -0.052870322 0.008873117 -0.04008793 -0.038435068 -0.003461843 -0.000833913 -0.0010727692
-0.026477914 -0.009923113 0.031541005 0.037293106 -0.044289853 -0.011594013 -0.0019138821 -0.037892696
-0.055291917 0.014937039 0.017634226 -0.0024277791 -0.022106573 0.007681069 -0.004759653 -0.0070111663
0.021649584 0.02538163 0.021252047 -0.0042982656 0.01497638 -0.043344893 -0.021908522 -0.0018927591
-0.05183882 -0.019232273 0.025273912 -0.043156542 -0.011742656 0.022444662 -0.03371881 -0.022996036
-0.0010048825 0.023015318 -0.0066853045 -0.04425365 -0.04997114 -0.013270435 -0.017675567 0.006858913
-0.0035316623 -0.05880893 0.01474302 0.030648911 0.03406605 0.03166563 0.027522001 0.005524267
-0.048935015 -0.048220247 0.02713554 -0.010561127 0.016015107 0.032701418 -0.01916572 0.02110578
-0.03390957 0.025995601 -0.02243815 0.026687901 -0.009816461 -0.029065927 -0.033314407 -0.05217247
0.025823105 -0.015040923 -0.04430053 -0.042546954 -0.05217313 -0.040754013 0.007597425 0.034723695
0.026535567 0.0077820146 0.025352508 -0.031005742 0.020936571 -0.05238775 -0.055471715 -0.014526245
0.008782625 -0.038110938 -0.048714552 -0.044195253 0.032839086 -0.034133907 -0.056680337 -0.015329365
0.0028770242 -0.049161628 0.013417406 -0.0034135347 -0.005075766 0.0011715016 0.009869418 -0.0151877785
0.01596831 -0.0059222654 0.0047062505 -0.021219665 0.010210896 -0.037243906 0.013070185 -0.0366675
0.009322497 0.020174613 -0.0008233409 0.018840834 -0.05311802 0.022627184 0.029000048 0.03169186
0.024330541 -0.0128919715 -0.033161003 -0.050601646 -0.007695683 0.007510624 -0.028434861 -0.013738122
0.003798258 -0.02642906 0.0010035847 -0.030657353 -0.057966556 -0.043098208 -0.046581343 -0.05838524
0.006923656 0.0068173185 0.013025046 -0.018846015 -0.05158827 0.014056988 -0.035364944 -0.0016641004
-0.008365043 -0.027656406 -0.035385072 -0.058014046 -0.059912946 -0.025160527 -0.0063289357 -0.029332874
-0.008638079 0.022045307 -0.042490635 0.01627288 -0.039955594 -0.05516653 0.0057404637 -0.025416002
-0.0023256375 -0.053663332 -0.040805597 0.010954199 0.023487018 0.022846648 0.008187501 0.018741615
-0.02629925 -0.027732072 -0.0037170013 -0.042780664 0.019320691 -0.014860117 -0.026105797 -0.0402991
-0.0024767332 0.00517194 -0.0464011 -0.03569665 -0.042803004 -0.059136733 -0.015109401 -0.023199629

localAttentionLayer_item.cnn.0.weight f4 [200, 1, 1, 100]
00000000: cf13 523d 1e12 0fbc 0f25 ccbc dcef a73c
00000010: 18f3 12bd 0675 bb3d fccd 5d3c fd7d 9e3d
00000020: b961 723d ba26 90bc 0cc6 8bbc a399 8b3c
00000030: 4195 213d 114e b53d 244b d63d 98fd 9fbd
00000040: 7371 71bd 09fa 8abb 5e79 01bd bbcd 94bd
00000050: fabc 8c3d d3c9 c53c eb69 53bd 7913 403c
00000060: 4d6c 633d b44f 9bbd 69b9 4ebc fe33 c63d
00000070: 00c3 9b3d f9e4 5ebd d7e1 eebb aabe 7abd
00000080: dc68 9c3d 4521 12bd 3411 a1bc edb1 7e3d
00000090: 703d e2bc f8bb d33d 7283 47bd c71b a5bd
000000a0: 0d3a 073b f099 adbd bcdb 79bc 095e aa3d
000000b0: 622c 14bd ecc1 19bd 6b76 c43d 30d4 acbd
000000c0: 7c94 99bd 8d59 6a3b 0940 3a3a c973 07bd
000000d0: 5bd2 c63d 49dd 293d 90f0 ecbb dfd8 ed3c
000000e0: 5569 6d3d 96ee c03d 108b 66bd 541d 9dbd
000000f0: 34bf 283d 6c27 623c 97ae b6bc 83f0 843d
00000100: cbf6 87bc 2121 9b3c 6d97 3cbd 1c14 8d3c
00000110: 5370 2d3d 2505 093d 1edc 1dbc 0ff4 98bd
00000120: bae5 3a3d 8e3b 543c e9ed 6f3d a5a9 923c
00000130: 61d5 90bd 36ba b3bd ffaa 99bd 9bbe 59bd
00000140: 93c0 da3c 8b95 d5ba e755 aa3d 2e74 8cbd
00000150: c136 843d 88e7 3fbd d370 ed3c 4e4f 923d
00000160: 8e9b c73d 0a8b a2bc b82b 7a3d 2458 e83c
00000170: 1a08 8a3d 210d 5dbc 4a6a 5f3d 4479 e3bc
00000180: 59c7 a5bd 67c3 883b 69b2 cf3c b42c 91bd
00000190: 302d c13d c692 afbd 196f 4a3d 63aa bf3d
000001a0: eecd cfbd 090c 8a3d 505c 633d 5ef0 1c3d
000001b0: f766 98bd ea8f 4ebd 52d8 843d 6aaa 8a3b
000001c0: a617 cb3d 3f5e b1bd 992c 31bd 0a9f 593d
000001d0: 4806 f2bc ccd4 b7bd 39a2 603d 8283 1a3c
000001e0: 2504 9e3c 7d61 7d3c 8c23 973d c0f8 c03d
000001f0: 06b0 303d 2ce0 153c 5379 8b3d 0120 43bd
00000200: b7dd 7f3d 6b16 933c a775 97bd 0c74 973d
00000210: c204 b2bd f8e7 9d3d 462f bc3d 1f1c 763d
00000220: e17e c93d 3aca f7bc 2dac 43bd e47e 58bd
00000230: 9570 a7bb 59fe 52bc 7752 43bd d745 1abd
00000240: d222 793d 3cfb 0dbd e904 eabc fc06 cd3d
00000250: 8eb4 613d 1b63 a63d 75ee 66bd 7ba0 bcbd
00000260: 5c45 463d 3eaa 8dbd 9fe7 5b3d f2a5 99bd
00000270: b537 523c 6cad 74bd 921b 0dbd 42aa a23c
00000280: 82fb ca3c 7467 f9bc 4dea 823d 2f7b cf3c
00000290: 93ff 593d d185 6a3d fe50 153d 511c d13d
000002a0: 165b c0bd 2bdf 413d e121 c1bd 6b44 d43c
000002b0: 7d41 313d 8bd1 383d 092c f83c 9358 88bd
000002c0: 45af c1bc 406a 393d 3153 763d 68ff 863d
000002d0: f3aa bf3d 2c00 aebd fb84 9ebd 9272 66bd
000002e0: 584a 083d f2d0 453c 74b6 c43d 5bf5 a73c
000002f0: 5049 4cbd 45de c33d 584b d6bb 06c9 54bc
00000300: 5fa0 013d 8585 06bd 2af8 7fbd b5e8 cd3d
00000310: 115f 6d3d 2929 1fbd f46f 4dbd 8c63 7abd
00000320: bf80 3a3d 11c3 7b3d 01da 9d3d 64e0 223d
00000330: 7e4b 43bc beb6 b23c 5ef6 1abd 922e 923d
00000340: 0730 cebc 623c 79bd 2331 47bd 39b1 843d
00000350: f470 3d3d b600 e23b d51e 413d c3a2 71bd
00000360: d132 d1bd 4090 c8bd 4b67 98bb d980 55bd
00000370: 6162 15bd 9346 5e3c e29b c1bd 5913 a4bd
00000380: 751e e0bd af77 993b a41d c43c e4c9 133d
00000390: 0a02 1a3d 484b 9fbd 7870 ac3d 555a 14bc
000003a0: 08f5 393d 10e3 5d3c 954e 8abd 6926 9bbd
000003b0: 0a3b c2bd 2b40 47bd 8bbb 89bb 2791 7a3c
000003c0: 86dd 2fbc 594f f83a 4cb5 90bb 9e95 b0bd
000003d0: 9d8b c2bd 6eb8 413d 5e77 513c c982 14bc
000003e0: 0b4f 12bd 6d7f 81bd 5b25 21bc 35ff 0cbd
000003f0: 8dcc 403c f9c4 913c 9f15 69bd 1a14 da3c
0.051288422 -0.008732347 -0.024920015 0.020500116 -0.035876364 0.0915318 0.01353788 0.07738874
0.059175227 -0.017596591 -0.01706221 0.017041033 0.03944898 0.088527806 0.10463551 -0.07812041
-0.058946084 -0.0042412323 -0.031609885 -0.072658025 0.06871982 0.024144089 -0.051614683 0.011723393
0.055523206 -0.075835615 -0.012617447 0.096778855 0.07605553 -0.054417584 -0.007290106 -0.061216988
0.07637188 -0.03567626 -0.019661523 0.062181402 -0.027617186 0.103385866 -0.04870934 -0.08061939
0.0020633966 -0.08476627 -0.015250143 0.08318717 -0.03617514 -0.037538454 0.09592899 -0.08438909
-0.07499024 0.0035758943 0.0007104879 -0.033069406 0.09708091 0.0414708 -0.0072308257 0.029034076
0.05796178 0.09420507 -0.056284964 -0.076716095 0.04119797 0.013803344 -0.022300048 0.064911865
-0.016597172 0.018936696 -0.04604285 0.017221503 0.04234345 0.03345217 -0.009635 -0.074684255
0.04562924 0.012953652 0.0585765 0.017903158 -0.07071949 -0.08775751 -0.07503318 -0.05316029
0.026703155 -0.0016295178 0.08317166 -0.06858097 0.06455756 -0.046851665 0.028984463 0.071440324
0.097464666 -0.01984169 0.06107685 0.028362341 0.067398265 -0.0134919 0.054544725 -0.027767785
-0.08094663 0.0041736844 0.025353627 -0.070886046 0.09432447 -0.08572917 0.049422357 0.093586706
-0.101467 0.06740577 0.055507958 0.03831517 -0.07441514 -0.050430216 0.06486572 0.0042317407
0.0991662 -0.08660554 -0.043255422 0.053130187 -0.02954401 -0.08976135 0.054842208 0.009430768
0.019289086 0.015465138 0.07379827 0.09422445 0.04313662 0.009147685 0.0681025 -0.047637943
0.062467303 0.017955026 -0.07395487 0.07395181 -0.08692314 0.0771026 0.09188704 0.060085412
0.09838653 -0.030247796 -0.04777162 -0.052855387 -0.0051098564 -0.012878024 -0.047686066 -0.03766426
0.060824223 -0.034663424 -0.028566794 0.10011098 0.05510383 0.081243716 -0.056379754 -0.09210297
0.04840599 -0.06917237 0.053687688 -0.07502355 0.012830664 -0.0597357 -0.03445012 0.019856576
0.024778131 -0.030444838 0.063923456 0.025327293 0.05322225 0.057256524 0.036454193 0.10210479
-0.09392373 0.04733197 -0.0943029 0.02591153 0.043275345 0.04512171 0.030294435 -0.06657519
-0.023643145 0.045267344 0.06013793 0.065916836 0.09358778 -0.084961265 -0.07740208 -0.056261607
0.033274025 0.012073742 0.09605113 0.020502737 -0.049874604 0.09563879 -0.0065397434 -0.012987381
0.031647082 -0.032842178 -0.062492527 0.10054151 0.05795199 -0.038857613 -0.050155595 -0.06113009
0.045532938 0.061465327 0.077075966 0.039764777 -0.011919854 0.021815654 -0.03783261 0.07137789
-0.025169386 -0.0608486 -0.048630845 0.06479115 0.0462503 0.0068970574 0.047148544 -0.058993112
-0.102147706 -0.097931385 -0.0046509854 -0.05212483 -0.036470775 0.013566631 -0.094535604 -0.08011503
-0.10943309 0.004683457 0.023939915 0.03608121 0.0375996 -0.07778031 0.08419889 -0.00905474
0.045399696 0.013542905 -0.067532696 -0.075756855 -0.09483917 -0.04864518 -0.004203265 0.015293396
-0.010733968 0.0018944546 -0.0044161435 -0.08622287 -0.09499285 0.047295026 0.012784807 -0.009064385
-0.035719912 -0.06323133 -0.009835566 -0.034423072 0.011767519 0.01779412 -0.056905385 0.026620913

localAttentionLayer_item.cnn.0.bias f4 [200]
00000000: 69e2 94bd 14c0 833d 31de 6a3d 7678 a53d
00000010: 3ab6 8cbc 0f32 063c f131 96bd 704b b03b
00000020: 3289 403d 8654 693d cb54 a63c f650 5c3d
00000030: 1113 433d 28cd 043c cc00 713d ae25 3a3d
00000040: 97de a4bd b840 ebbc 7d9d 0d3d 7d32 933b
00000050: c5b0 5cbd aa64 71bd e401 9b3b 456e ae3c
00000060: 4c57 8dbd 5b2c 793d 022f ad3c d9c7 003d
00000070: 3369 183d 4cca b1bd 9430 9a3c eaf3 abbd
00000080: 4af9 6d3d 5dd5 f73b a197 1e3d 432e aabd
00000090: 70fa a0bd 78ad 603b 608c 863c 3637 28bc
000000a0: 0ab1 bcbd f0a3 173d 51d6 d6bc 4d93 b63d
000000b0: c7c0 67bb 3606 b93d 34af 363d fada 93bd
000000c0: 69a2 243b 01b4 62bc 1b68 babd 1201 cf3c
000000d0: 7578 a4bd 8482 1f3c 35e8 9f3d 689c d5bc
000000e0: 93b0 c33c bcb0 243d 048f 943d 9689 b7bc
000000f0: 52e4 b53b 892d 43bc 1ddf 2e3d dec2 90bd
00000100: 22cf 11bd d18b de3d 7029 a43d deb4 dc3b
00000110: 92a7 863d 39e8 80bd ae9c 343b 2a9f 143d
00000120: f4e3 d13c a38f 9b3c ad6b 01bc a4e3 63bb
00000130: 35ad 183d 55c0 0d3d c883 ccbc 0c1e 2d3d
00000140: c341 cd3c 74d2 04bd 26e6 17bc 4ece ae3d
00000150: 3de8 a53d ea65 abbd 0ba1 adbc 70c3 46bd
00000160: 2156 9cbc 1321 3bbb 84cf 9a3d 6bc6 4b3d
00000170: 5983 443c f3fc 9abd 8cc4 70bd d85b 5c3b
00000180: a5ee 353c e033 0a3d 12e4 28bd 74d4 083d
00000190: 0a82 a0bd 176d 86bd 131f a6bd a8ea 9fbd
000001a0: 3b06 16bd d1cc 633d fe94 97bd f360 3bbc
000001b0: bcd1 5f3d 58f0 e1bb 6456 90bd c275 bfbd
000001c0: d18d 8c3c 5a68 cd3c e4f7 803d 5b9e a2bd
000001d0: 5e6b 5c3d 9fb2 8abd 3e99 013d f900 f83b
000001e0: 210b cabc 63a8 853d 6341 85bc 3a31 383d
000001f0: 11c9 87bd 130a babc 5699 c3bc ea1f a03d
00000200: 1508 d5bc 28ff 63bd d9ec 9d3d a782 573d
00000210: fc05 12bd 619c b6bd 9f0d bc3c 2535 c3bd
00000220: f845 2c3d 48c0 373d 0ad2 f73c 9713 0d3d
00000230: 4bf8 6f3d ff40 88bc de7a 443d d559 f83c
00000240: 943e 5c3d bbff abbd 9750 ad3b 62d5 863d
00000250: 261c 9d3c 16f8 80bd 17cb f83c 35a6 a63c
00000260: 80eb 49bb adb0 ab3d e5db 9a3d 31bd 30bd
00000270: 1196 acbd 2b3f 203d ae0b 663c 551a 89bd
00000280: c8d1 59bc 91ef bdbd db36 52bd ccce 7dbd
00000290: 499f 42bd 74ed 63bd c764 3e3d 595f 7a3c
000002a0: 5f82 97bd 82c4 14bb b87d 4d3c 4bd3 2e3d
000002b0: b6ee c53c 6fb8 e03c 1e36 1dbc 018e 183d
000002c0: 0246 cc3d 056e b2bc c4af 553c 0ecb 4ebc
000002d0: 93c9 83bd ecc3 f13a 00f5 363d e041 6ebd
000002e0: 6c98 cfbd 4be6 7bbd 0473 26bd 01d6 4fbd
000002f0: b7cf a63d eb3c e4bc 290a 893d eef9 babb
00000300: 35f0 50bd e9d2 9c3c 100c e5bc d3ac 403c
00000310: b8d4 b13c 650e 1bbd 9453 8ebb 6bfa 3ebd
-0.07269747 0.0643312 0.057340804 0.08079617 -0.017176736 0.008190646 -0.07333744 0.0053800866
0.04700584 0.056965373 0.020304104 0.053788148 0.047625605 0.008105554 0.05883865 0.04544609
-0.08050268 -0.028717384 0.03457402 0.0044921027 -0.053879518 -0.05893389 0.00473045 0.021292815
-0.06901416 0.060833316 0.02114058 0.03144059 0.0372097 -0.08681163 0.018821992 -0.08396132
0.05809907 0.0075632767 0.038718823 -0.08309605 -0.07860267 0.0034283083 0.016424358 -0.01026707
-0.09213455 0.037021577 -0.02622524 0.08914814 -0.0035362707 0.09034388 0.04460068 -0.07219501
0.0025121218 -0.013836862 -0.09101888 0.025269065 -0.08030788 0.009735707 0.07807962 -0.026075557
0.023887908 0.04020761 0.072538406 -0.022404473 0.0055508995 -0.011912712 0.042693246 -0.07068418
-0.035597928 0.108665116 0.08015716 0.0067354282 0.0657493 -0.06294293 0.0027559209 0.036284603
0.025621392 0.01898939 -0.007899207 -0.0034773136 0.037274558 0.03460725 -0.024965182 0.042264983
0.025055772 -0.032427266 -0.00927118 0.08535443 0.081009366 -0.08369048 -0.021194955 -0.048526227
-0.019084038 -0.002855365 0.07559112 0.049749773 0.011994206 -0.075677775 -0.05878119 0.003362408
0.011104261 0.033740878 -0.04123313 0.033405736 -0.07837303 -0.06563776 -0.08111396 -0.07808429
-0.036627036 0.05561525 -0.07401465 -0.011436689 0.054643378 -0.0068951063 -0.07047728 -0.093486324
0.017157467 0.025074173 0.062972814 -0.0794036 0.05381333 -0.067723505 0.031640284 0.0075684753
-0.02466351 0.06526258 -0.01626653 0.04496882 -0.06630147 -0.022709882 -0.023876827 0.07818587
-0.02600483 -0.055663258 0.07711191 0.052614834 -0.03565024 -0.08916546 0.022955714 -0.09531621
0.042058915 0.044861108 0.030251522 0.03444251 0.0585864 -0.016632555 0.047968738 0.030316273
0.053770617 -0.08398386 0.005289148 0.06583668 0.019178461 -0.06297319 0.030370278 0.020342926
-0.0030810535 0.083833076 0.07561473 -0.043149177 -0.084270604 0.03912274 0.014040871 -0.066944756
-0.013294645 -0.09274209 -0.051321846 -0.061964795 -0.047515187 -0.055646375 0.046482828 0.015281522
-0.07397913 -0.0022700136 0.012542181 0.042681973 0.024161678 0.027431695 -0.009595422 0.0372448
0.099742904 -0.021780977 0.013042394 -0.012621654 -0.064349316 0.001844523 0.044667244 -0.058168292
-0.10136494 -0.06149892 -0.04063703 -0.0507412 0.08145087 -0.02786108 0.06691391 -0.0057060635
-0.05101033 0.019143539 -0.027959853 0.0117599545 0.021707878 -0.037855525 -0.0043434594 -0.046625536

fcLayer.0.weight f4 [500, 200]
00000000: af8b 8f3d 624b 2e3d b115 77bd 8fa2 6bbc
00000010: d7f0 b8bc 1e88 053d f20a a6bd 5cba 8bbd
00000020: 5a0b 863c c4b3 113c acf6 5c3c 5101 bb3c
00000030: 8182 953b c1dc ce3c 03c3 483d 1b2b b53c
00000040: 16c5 053d 96ee 75bd 2307 953d 963a 763b
00000050: 96aa 2abd 5cad aa3b f5fb 95bc 3023 e4bb
00000060: d5f1 5cbd 28b7 6e3c 701e 8bbd ad45 353d
00000070: 32fc 4ebd 9340 523d 9406 fdbc c217 6cbd
00000080: 0d31 cf3b 7a2b 493d fc85 d63c 789b 55bd
00000090: 9a5b df3c 5a23 413c 2fd5 3b3d b1bc 253d
000000a0: 9fbf 063c c274 8bbc 2132 f43c 7b6c 503d
000000b0: 3426 02bd b34c 70bd 0f66 473d 1ffb 46bd
000000c0: bb81 90bc 5ea0 653d 58ea d7bc 246f b83c
000000d0: 84c2 57bd 7d4b 92bd 62c9 3c3c 1703 c5bc
000000e0: c167 30bd 7118 8fbd d6ef 543d 4594 acbc
000000f0: e6f7 723d 188f 3a3d 467c 293d d2c8 fdbc
00000100: 32a6 a03c 3d1b 983c 9059 303d 5eba 1dbd
00000110: 42a1 5ebd 0ba0 ec3c 65d0 a0bb 9b97 6d3d
00000120: 38f5 193d 3156 89bd 5e01 c5bc 80d9 213d
00000130: f33c 61bd f455 fdbb bb52 843d 06db 203d
00000140: dded 8b3d bbc8 febc 435c cabc 905b 56bd
00000150: 1a53 063d 9272 6c3d 5fb2 0a3d 484a aabd
00000160: 2374 033d 99c3 2b3d 13aa c13c 99a8 10bd
00000170: e971 08bc e6c3 103d 0055 3f3d 2ae8 0a3d
00000180: 297e 78bd af00 bf3c 87bb 763d de24 97bc
00000190: 141c c3bc 79a1 e33c 110d 66bd aee0 71bb
000001a0: 2b8b 0a3c 59a1 48b9 d30b 673b 3629 77bd
000001b0: f361 8cbd 2bb1 aebc a2d8 8bbd f760 263d
000001c0: 97c8 d93c 3fcb 8fbd a061 27bc ec46 923c
000001d0: 622d afbc 2a4a 28bc 4979 69bd b7bc 953c
000001e0: b2e1 c93b 7d10 283b 93a7 333c 8ebb 48bd
000001f0: 2455 4c3d 6ff7 45bd d159 923c f662 dcbc
00000200: 731a 703d ef69 613d 7234 a7ba d76c f23c
00000210: 9d93 a8bc 0e13 763c 2168 0f3d 7ca5 3d3c
00000220: 5f7e 1fbb 145f 28bd 466c 94bc 35a8 2e3d
00000230: 9b02 24bd adc3 57bd 356b 85bd 218f 80bd
00000240: de6c 79bd 85c3 fb3b 9a7a 90bd 19e4 cd3a
00000250: fa86 083d 179f 5d3d b384 11bd 06a8 76bd
00000260: 73e1 a8bd 7f11 d6bc aac3 8abd b3a3 f93c
00000270: 7111 263c c444 d63c d7c4 6b3c 4bc2 fcbc
00000280: 444a 153d 420d 09bd dd1d 16bc 1bf7 babc
00000290: b61a 1c3d b568 3ebd 7230 8abd a41e 823d
000002a0: a885 a8bb 1c5d 113a 6569 76bb 8e3b 38bd
000002b0: dd5d 21bd 8233 643c b32b 253d d040 03bb
000002c0: 42ff 7c3d 1982 443d c51e bcbb 4914 4a3d
000002d0: 01fe b4bc 8691 60bd 4291 2d3d 748a 773c
000002e0: 4ded 143d 7859 1abd 8e91 68bc 73d0 a73c
000002f0: 43c1 69bd 5928 513d 51de 27bc 558d fb3a
00000300: 6759 fbbb 940d 6f3d 9ff4 dfbc ea2f 8abd
00000310: de9f 993d 32f4 fe3c 45b5 aebd 4283 35bc
00000320: 018f e43c b7a5 8bbd 096d 0d3c 1f1f 17bd
00000330: 31e5 183b 75a6 5dbd 055d d8bb d137 0cbd
00000340: 1764 843c bb8e 863d f58c ff3a e013 08bd
00000350: 181c 15bd 89ee c33c 2672 72bd 382a 3ebc
00000360: e2dd e23c c1bc 613d 4905 02bc 042d 443d
00000370: ef61 b03c 9136 fd3c 4ae9 3bbd d87a 6b3d
00000380: f9e4 81ba b2a9 993c 601d 823d 07ca 0f3d
00000390: c5de f23a 0fa4 163d 0060 343d af50 093c
000003a0: 500e 883b 0d97 863c b837 dabc 176e 6dbc
000003b0: 1b19 553d 41bd 1a3c c0e9 643d eea7 8cbc
000003c0: 3b1e 013d a05f 2fbb 640f 933c 3926 b5bc
000003d0: 826f 843b 0fa5 403c 2e05 653d 11f0 693d
000003e0: e598 56bc 8f2f c9bc 196d 003d 6c97 bf3c
000003f0: e34c 68bd 0e56 19bd be38 283d 7ae0 043d
0.070090644 0.04255236 -0.06032342 -0.014382019 -0.022575779 0.032600515 -0.081075564 -0.068226546
0.016362835 0.008892957 0.0134865455 0.022827776 0.0045626764 0.025251748 0.049014103 0.02211528
0.03265866 -0.060041986 0.07276752 0.003757154 -0.04166659 0.0052086543 -0.018308619 -0.0069622025
-0.053941566 0.014570035 -0.06792915 0.0442559 -0.05053348 0.051331114 -0.030886926 -0.057639845
0.006322986 0.049113728 0.026186936 -0.05215022 0.027265359 0.011788214 0.045857605 0.040463153
0.008224397 -0.017023448 0.02980906 0.050884705 -0.031774715 -0.058666896 0.048681315 -0.04857933
-0.017639985 0.05606114 -0.026356861 0.022513933 -0.05267574 -0.071433045 0.011522623 -0.024049325
-0.043067697 -0.06987084 0.051986538 -0.021066794 0.059318446 0.04554662 0.041378282 -0.030979548
0.019610498 0.018567676 0.043054163 -0.03850781 -0.054353006 0.028884908 -0.004907655 0.05800591
0.037587374 -0.06705893 -0.024048503 0.039514065 -0.054989766 -0.0077311937 0.06461092 0.039271377
0.06832478 -0.031101575 -0.024702197 -0.052333415 0.032794096 0.05772645 0.033861514 -0.08314949
0.03209318 0.041934583 0.023640668 -0.035317037 -0.00832794 0.035343073 0.04671192 0.033912815
-0.06066719 0.023315756 0.060237434 -0.018450197 -0.0238171 0.027786957 -0.056164805 -0.0036907601
0.008456032 -0.00019133593 0.003525485 -0.060342036 -0.0685462 -0.021324715 -0.06828429 0.040619817
0.026584907 -0.07021188 -0.010216147 0.017856084 -0.021383945 -0.010271588 -0.057000432 0.018278463
0.006160938 0.0025644593 0.010965246 -0.04900699 0.049885884 -0.048331674 0.017865093 -0.026902657
0.058618974 0.055032667 -0.0012756719 0.029592915 -0.0205782 0.015019191 0.035011414 0.011575099
-0.0024336798 -0.0411063 -0.018118035 0.042640883 -0.040041547 -0.052676845 -0.06514589 -0.062773
-0.06089484 0.00768322 -0.070546344 0.0015708237 0.03333185 0.054106798 -0.035526942 -0.060218833
-0.08246126 -0.02613139 -0.06775601 0.030473566 0.010135994 0.026155837 0.014390192 -0.030854365
0.03644778 -0.03345991 -0.009162393 -0.022822907 0.03811141 -0.046486575 -0.067475215 0.063535005
-0.005142886 0.00055451854 -0.003759944 -0.04497867 -0.039396156 0.013928296 0.040324878 -0.0020027645
0.06176687 0.047975633 -0.0057409727 0.04933575 -0.022093775 -0.054826282 0.042374857 0.015108693
0.03635912 -0.03768298 -0.014194859 0.020485139 -0.057069074 0.05106387 -0.010245875 0.00191919
-0.0076705697 0.05836256 -0.027338324 -0.0674742 0.07501195 0.0311223 -0.08530668 -0.011078658
0.02790022 -0.06818717 0.008631953 -0.036894914 0.0023329968 -0.054113824 -0.0066028857 -0.03423292
0.016161008 0.065701924 0.0019496965 -0.03322208 -0.036403745 0.023917453 -0.05919089 -0.011606745
0.027693693 0.05511165 -0.00793583 0.047894493 0.021531073 0.030909808 -0.04587678 0.0574902
-0.0009910158 0.018757675 0.06353259 0.035104778 0.0018529525 0.036777552 0.044036865 0.008381053
0.004152097 0.016429449 -0.026637897 -0.0144915795 0.052025896 0.009444536 0.055886984 -0.017169919
0.03152297 -0.0026759878 0.017951675 -0.022112953 0.004041613 0.011758103 0.055913143 0.05711371
-0.013097976 -0.02455881 0.031354044 0.023387633 -0.05671395 -0.037435584 0.04106974 0.03244064

fcLayer.0.bias f4 [500]
00000000: dbc7 883d 0117 85bd 35e1 7ab9 efcb 193d
00000010: d416 c93c 61b5 3d3d 28c0 55bc c79e 9bbb
00000020: 9c34 b03c a2ae 803d a8fa 5ebd 296f a8ba
00000030: cfb5 99bc cbf2 763d 922a 1d3d 8791 1a3d
00000040: e15b 4b3c fa1f 54bc 1a76 283d c9df ccbc
00000050: 9d20 dc3c b4c9 f2bb dd91 1d3d 828a 803c
00000060: 8e5b 89bc 6840 923c f9e2 ce3c de3c 8f3c
00000070: f977 b73c 3427 bfbb 7d7c 423d bc08 d2bc
00000080: e1c4 a23d a14d f73c 3e92 363d c1c0 7ebd
00000090: 6c7b d43a c9ef 06bd 5996 913d 2ec2 093d
000000a0: 0256 dbbc 27d9 e13c cf69 acbb 0b25 883d
000000b0: de74 23bd f70f 263d 0d71 6c3d 7385 e6bb
000000c0: a519 51bc cf3b 3ebd 2b96 5f3d 39df 653d
000000d0: 83ae a13c 0d45 133d 20df 3ebd dce7 f7bc
000000e0: 1af6 8abd 7587 31bd cbe9 9dbc 2dcd b83c
000000f0: ed9c 8c3c 920d 4abb 07d7 723d 9e6f 4b3d
00000100: 0b69 363d 69b4 2fbd 9758 883d 2e9f c9bc
00000110: fa29 553d a32b ce3b 5ac4 8b3d 2c3a b53c
00000120: a7d1 2b3d 70e7 93bc 1cd0 843d b4a8 8fbd
00000130: 167a 093c 7887 18bd 0165 51bd eb6a a23c
00000140: e6cd 633d ca50 263d 6d46 963c 5632 723c
00000150: e3d3 093c 09e5 8e3d cce7 83bd ba94 373d
00000160: 6ecb 813c 9043 883c 71a1 033d e583 2d3b
00000170: 7e9d ef3c f18e 29bc bbab 843d b0fb 413c
00000180: b85e 20bc 1948 84bd a87f 0a3d 6fb1 94bc
00000190: a977 edba e43a afba ca3d 1abd ff90 d13c
000001a0: 7784 093d 14ed 053d 44a6 93bc 3c35 513d
000001b0: 085b 8b3d 5c28 8abd 0bfc ab3c 8816 61bd
000001c0: 9033 6d3c 64f1 163d 0d1c 1bbd fe97 2dbc
000001d0: bcc2 a3bc 8b2b 8c3d 342f 37bd 4258 26bd
000001e0: 98cb b3bb c31c c6ba 54c2 203c 10f2 4239
000001f0: 9dad ec3c 5df8 4ebc e050 673d 4d55 793c
00000200: 3bfa 053d 00ec 273d 9140 8f3d c82e 9b3d
00000210: f73e 693d 15fa a43d e5a9 b8bc 3e8a 423d
00000220: 4d36 4e3d a6de 033d 28e6 103d 073c 6d3d
00000230: 4d30 2b3d 4557 fcbb d504 56bd 0675 0ebd
00000240: b4ea 6e3d 59be 75bd 9917 9bbc 8746 29bd
00000250: bfa4 7bbd 73e7 813c 5a4b 293d b0e5 cf3c
00000260: 2ecc 35bd 1b55 49bd 8592 8f3d dfc0 95bc
00000270: c59e 823d a044 19bd 7cb1 a8bc a99f 38bd
00000280: 18d5 363d 8202 1a3d bc66 e8bc 38b2 1abd
00000290: aa84 803d 4fab 45bd bcc4 0ebd a812 943d
000002a0: bcd0 3d3d e32f e3bc 4790 4ebd f145 763d
000002b0: c872 1cbd bd5d 18bd 79d1 4cbc d316 fb3c
000002c0: 4c36 f43c 2195 b9bc 1245 e1bc 2928 c8bc
000002d0: f259 503d 4909 763c 2636 303b 890c f2bc
000002e0: a4a6 993c 412a 743d 3427 09bd 2837 e63c
000002f0: 089c 0b3d 84b1 a5bc 93cc 0d3d 04b6 973c
00000300: 212d 883c 168b 613d d9f8 81bd f83a 5cbd
00000310: d1c6 ca3b 4c7f 2bbd ec4c 17bd 88ba 7f3d
00000320: 86dd 9fbc 2fff 2ebc acab 443d 4943 7bbc
00000330: a9dd 4f3d b710 a23d 0349 39bd fd32 2f3d
00000340: 4555 a43d fcf7 543d 121d 883d 98d0 6cbd
00000350: e84f 6d3d 5f21 503d aebd a13d b1c0 55bc
00000360: 6ed8 34bd 2ac3 f5bc d68c 0ebd 55d8 9c3c
00000370: 7ffe 1bbd 827d 353b 689e a33c dc05 71bd
00000380: 2178 d0bc 4923 503c 01f6 223d 592f 0d3c
00000390: 9335 c8bc ca6b 813a 0e76 00bc ee2c e3bc
000003a0: 9106 cfbb 16fb dabc 12f9 643d 7484 613d
000003b0: 09b2 32bd c0d3 27bd e967 1ebd 3d2c 963d
000003c0: 976c 86bc 4b13 763d 4202 573d 172c 9f3c
000003d0: 4d4a 813d 0ff2 42bd b857 8c3c 78cb 893d
000003e0: dfc3 6c3d ac59 b5bc fab6 e33b b2fc 833d
000003f0: ea2e 003d 5a01 83bd 455a 8cbc 3fed ca3c
0.066787444 -0.06498528 -0.00023925754 0.037548 0.024547018 0.046315555 -0.013046302 -0.0047491523
0.021509461 0.062833086 -0.054438263 -0.0012850511 -0.01876345 0.06029014 0.038370676 0.037736442
0.012412042 -0.012947077 0.041128255 -0.025009053 0.02687102 -0.007409299 0.038469184 0.015691046
-0.01676729 0.017852977 0.025254713 0.017485078 0.022396075 -0.005833531 0.047482003 -0.02563893
0.07947708 0.030188384 0.04457306 -0.062195543 0.0016211099 -0.03294352 0.07108755 0.03363245
-0.02677441 0.027569367 -0.005261637 0.066476904 -0.039906375 0.04054257 0.057725 -0.0070349514
-0.012762462 -0.046443757 0.05458657 0.056121085 0.019736534 0.035954524 -0.046599507 -0.030261926
-0.067852214 -0.043342073 -0.01927652 0.022558773 0.017164672 -0.0030830842 0.059287097 0.049666993
0.04453377 -0.042896662 0.06657522 -0.024612036 0.052041985 0.006291823 0.068245605 0.022122465
0.041947987 -0.018054694 0.06485006 -0.070145994 0.008390924 -0.037238568 -0.051121715 0.019826373
0.055616282 0.04060439 0.018344129 0.014782509 0.008412334 0.06977279 -0.06440696 0.04481957
0.015844073 0.016633779 0.032136384 0.002647632 0.029249903 -0.010349021 0.064780675 0.011839792
-0.009788208 -0.06459064 0.03381315 -0.018151013 -0.0018117327 -0.0013368991 -0.037656583 0.025581835
0.033573594 0.0326968 -0.018023618 0.05107616 0.06804472 -0.06745979 0.020994207 -0.054953128
0.0144776255 0.0368513 -0.03786855 -0.01059532 -0.019990318 0.06844243 -0.04472275 -0.040611513
-0.0054869168 -0.0015114773 0.009811956 0.00018591457 0.028891379 -0.012632457 0.056473613 0.015218091
0.03270934 0.04099655 0.06994737 0.07577282 0.056944814 0.08055512 -0.02254195 0.04749512
0.050344754 0.032194756 0.035375744 0.057918575 0.04179411 -0.007700833 -0.052250702 -0.03477957
0.0583293 -0.059995983 -0.01893215 -0.041327026 -0.06143641 0.015857434 0.041331626 0.025378078
-0.044384174 -0.04915343 0.07010368 -0.018280445 0.06377939 -0.03741896 -0.020592444 -0.04507414
0.044636816 0.037600048 -0.0283693 -0.03776762 0.06275304 -0.048259076 -0.03485559 0.07230121
0.046341643 -0.027732795 -0.050430562 0.060125295 -0.0381954 -0.03719877 -0.012501114 0.030650532
0.029811047 -0.022654118 -0.027498756 -0.024433212 0.05086703 0.015016862 0.0026887744 -0.029546993
0.018756218 0.05961061 -0.033484653 0.028102472 0.03408435 -0.020226248 0.034618925 0.018519409
0.016623082 0.055064283 -0.06346292 -0.053767174 0.0061882515 -0.041869447 -0.036938593 0.06243375
-0.01951481 -0.010680958 0.04801528 -0.015335866 0.0507485 0.07913344 -0.045235645 0.042773236
0.08024076 0.05199431 0.0664617 -0.057816118 0.057937533 0.050813075 0.07897507 -0.0130464295
-0.044151716 -0.030000288 -0.03480228 0.019146124 -0.038084503 0.0027693217 0.019972995 -0.05884348
-0.025447907 0.012703725 0.03978539 0.008617246 -0.024439609 0.0009874043 -0.007840646 -0.027731385
-0.0063179214 -0.026731055 0.055901594 0.055057958 -0.04362682 -0.040973425 -0.038673315 0.073326565
-0.016409202 0.060076993 0.052492388 0.019430203 0.06313 -0.047594126 0.017131671 0.06728262
0.057803985 -0.022137485 0.0069493027 0.06444682 0.03129474 -0.06396742 -0.017132888 0.02477133
